Model_deployment/models/model_complete_3capas_sin_closeness.pth (torch, 23712 bytes, 6 tensors)

bias f4 [64]
000000 2a 85 6f bd 57 d8 9a be c9 62 a4 bd ba 51 bd 3d
       -0.058476605 -0.3024318 -0.08026654 0.09244104
000010 8d 03 6b bd c1 5e 45 3d a3 9a 67 bc e9 04 a5 3d
       -0.057376433 0.048186067 -0.014135989 0.08057577
000020 a9 1c a6 bd 78 d5 1f bd 59 ed 91 3e 15 54 80 bd
       -0.08110935 -0.03902194 0.28501394 -0.062660374
000030 6e f1 f1 bd dd f8 15 bd 7c e0 cc 3e dc 50 c2 bb
       -0.11813627 -0.036614288 0.40015018 -0.0059300493
000040 42 b3 aa 3e dd cd 7f bd 45 fd 6b bd b8 54 45 bd
       0.33339888 -0.062452186 -0.057614584 -0.048176497
000050 6a 31 72 bd ed 41 03 be 07 38 44 bd 59 9f fa 3d
       -0.059129156 -0.12818117 -0.047904994 0.122374244
000060 e2 df e0 bd 04 5d c4 3e a7 2d c2 3e 57 31 f6 3d
       -0.10980202 0.38352215 0.37925455 0.120211296
000070 00 63 75 bc 75 af 23 3e b0 a5 8e bd 22 16 9e bd
       -0.014977217 0.159849 -0.06965196 -0.07719065
000080 9e 24 22 be 74 84 ac 3d c2 a0 72 bd 71 85 52 bd
       -0.15834281 0.08423701 -0.05923534 -0.05139679
000090 fb 55 1f 3e fc 06 b8 3c b5 f5 b4 bd 0f 79 9e 3e
       0.15560143 0.022464268 -0.088359274 0.30951735
0000a0 cd 10 e7 bd 61 ba 00 be 46 03 54 bd 36 d9 34 be
       -0.11282501 -0.12571098 -0.051760934 -0.17660984
0000b0 ad ff 67 be d6 ba ca 3c 1a ed 3c be 29 d4 a2 bd
       -0.22656126 0.024747293 -0.18449822 -0.079506226
0000c0 98 d8 e6 bd d2 ef ab 3b 82 b7 b9 bd a9 7d 8e be
       -0.11271781 0.0052470947 -0.090682045 -0.27830246
0000d0 39 62 23 3d 10 51 32 be 93 f0 44 3e 1a 8c cf bc
       0.039888594 -0.17413735 0.19232397 -0.02533536
0000e0 31 76 b3 3d 27 ea 03 3d 06 83 e0 bc c1 21 69 3e
       0.087627776 0.032205727 -0.027406227 0.22766782
0000f0 d1 ff 37 be 9c 51 26 3e 3e b6 ba 3e 70 f4 7a bd
       -0.1796868 0.16242069 0.36467165 -0.06126827

weight f4 [64, 21]
000000 36 12 95 bd 50 1f 25 be 6b 3e 11 3d 74 1f 67 3e
       -0.07278864 -0.16125226 0.035459917 0.22570592
000010 f2 99 94 bb b9 9f 2b 3e 05 a2 0a 3d de 6c eb 3d
       -0.0045349533 0.16760148 0.03384592 0.11495374
000020 56 32 6d be 99 92 73 be 8c 9f d0 bd 9d 6e 9e 3d
       -0.23163733 -0.23786391 -0.10186681 0.077359416
000030 8f ac 35 be 67 70 12 3e 62 5a f4 bc 39 15 ab 3d
       -0.17741607 0.1430069 -0.029828254 0.08353657
000040 23 fc 8f 3e e7 c6 16 bd f6 14 48 3d 2a 27 6a 3e
       0.28122053 -0.03681078 0.048848115 0.22866502
000050 ad a0 31 be 9d ce a5 be 65 eb d7 bd af 2b 51 be
       -0.17346449 -0.32384196 -0.10542945 -0.2042682
000060 0a 74 4b 3e 0e 49 f3 be 31 48 8e 3e c6 a9 8a 3c
       0.19868484 -0.47516674 0.27789453 0.016926657
000070 98 a1 06 be b5 81 cc bc c0 5c 65 3e af b8 85 3e
       -0.1314758 -0.024964193 0.22398663 0.26117465
000080 0d d6 b3 be bb f2 9d bc 8e c1 45 3f 21 68 c9 3e
       -0.35124245 -0.019280782 0.77248466 0.39337257
000090 a0 87 b4 be 37 07 1e be 22 3e 8a be e4 3b 09 3f
       -0.35259724 -0.1543244 -0.2700053 0.5360701
0000a0 96 45 89 bb ba a6 65 3e 2a 67 3f be cf 76 5b be
       -0.0041892035 0.22426882 -0.18691698 -0.2143204
0000b0 38 64 e8 3e 81 5b d1 3e 71 16 76 bd 1e 7f 96 3e
       0.4538896 0.40890124 -0.060079996 0.29393858
0000c0 c9 b1 00 be 93 5c d9 bd 25 da f2 be c5 78 c6 bd
       -0.1256782 -0.1061336 -0.47432056 -0.09691004
0000d0 06 2d 4f 3e e9 33 6e be 27 74 04 3e 8f b7 e9 be
       0.20232019 -0.2326199 0.12934934 -0.45647857
0000e0 21 a6 03 3f a6 3c 7c be 5b 39 bd 3e 38 6c 01 3e
       0.5142537 -0.2463251 0.3695782 0.12638938
0000f0 96 16 45 bc 07 08 d3 bd 30 c7 42 3e 76 f8 09 3d
       -0.012029311 -0.103042655 0.19021297 0.033684216
000100 18 5e bd 3e af 07 b7 be 80 63 4f 3e e4 cb 8d 3d
       0.3698585 -0.3574805 0.202528 0.06923655
000110 46 21 22 3e 7c 83 c2 3d 08 63 18 be 72 97 89 be
       0.15833005 0.09497735 -0.14881527 -0.26873356
000120 05 2c 4a be 9e 4c 22 bd c6 bc 51 3e 03 b6 08 bd
       -0.19743355 -0.03962385 0.20482168 -0.033376705
000130 4a 2b af 3e a5 93 10 be 9e e2 cc 3e e4 e9 35 3d
       0.34212714 -0.14118822 0.40016645 0.04441251
000140 06 04 fb be b0 6e 3f be c5 e4 b6 3e be 1b 4c 3e
       -0.49026507 -0.18694568 0.35721412 0.19932458
000150 a2 22 1b 3e a1 a0 3b be 06 1b fc be 07 d6 a7 3e
       0.1514993 -0.18322994 -0.49239367 0.32780477
000160 8c 61 9d 3d 86 19 6f be 7d ea 98 3c 46 a7 8e 3e
       0.07684621 -0.2334958 0.0186665 0.27861995
000170 2b 98 33 bf 28 bb dd be 88 20 53 3e ec f8 20 be
       -0.70154065 -0.4330685 0.20617878 -0.15719956
000180 84 ad 26 3e df 67 d7 3c ca 9f 6a 3e 37 06 82 3d
       0.16277128 0.026294647 0.22912517 0.06348842
000190 c0 e8 74 3e e8 4c 4c bd 8f c3 51 3e bb 66 2d 3f
       0.23916912 -0.04987803 0.20484756 0.6773488
0001a0 b5 0e e5 bd d1 b0 3b be 0b f6 d9 be ee dc 5a 3d
       -0.11184446 -0.18329169 -0.42570528 0.05343335
0001b0 7d d4 0a 3f f8 92 24 3f 9b 88 46 bf c4 bf cc 3d
       0.5423048 0.64286757 -0.77552193 0.09997514
0001c0 bd 22 f5 3e d2 4d 66 bf 59 d4 a1 be 7c 04 19 3f
       0.47878066 -0.89962494 -0.3160732 0.5977247
0001d0 76 91 b9 be e2 46 6c be c2 0e ed 3e ec 24 1f 3e
       -0.3624379 -0.23073915 0.46300322 0.15541428
0001e0 85 e7 09 bf de 6a cc be 1e a0 58 3d 0c 38 ae be
       -0.53868896 -0.39925283 0.052887075 -0.34027135
0001f0 43 fd cf 3e fd 40 90 3d c4 48 67 be 75 18 45 bf
       0.4062291 0.070436455 -0.22586352 -0.76990443
000200 8f 84 b4 be a5 1d af bb 72 85 24 be 3a 9c 87 3e
       -0.35257384 -0.00534411 -0.1606653 0.2648638
000210 03 63 d3 3e 7d 9e b1 be d0 13 26 bf 3d 5c 96 3e
       0.41286477 -0.3469123 -0.6487398 0.29367247
000220 39 0e 6e 3d c0 64 cb be 96 b0 80 3e b9 04 55 be
       0.058119033 -0.39725304 0.25134724 -0.20802583
000230 9d a3 cb 3e e8 7d 3c bf b6 d3 e5 3e 24 7c 32 be
       0.39773265 -0.7362962 0.44888085 -0.17430168
000240 98 e8 89 3c 6b 71 78 bd 25 51 e8 3d 21 4b 96 be
       0.016834542 -0.06065504 0.11343602 -0.29354194
000250 30 20 02 bf 06 33 9f 3e bd 76 17 3e bb 1f d0 bd
       -0.50830364 0.31093615 0.14791389 -0.10162302
000260 6d 3c ce 3c 44 18 f4 bd 2e 85 b7 be 2e 2f fe be
       0.025175298 -0.11918691 -0.35843796 -0.4964537
000270 aa a7 be bd d6 ca eb be 86 79 69 3e fc ca 04 bc
       -0.09309323 -0.4605319 0.22800264 -0.008105036
000280 5a b5 0a bf e7 0c d1 3b be 1e 62 3e 96 b3 26 3f
       -0.5418297 0.006379712 0.2208204 0.65117776
000290 ad a3 a6 3e 03 a7 1c be 77 bf 0d 3d 24 da 6d 3e
       0.3254675 -0.15298085 0.034606423 0.23227745
0002a0 50 79 af bc 05 ad 85 be 8d 3c 6a 3b 2c b8 34 3e
       -0.021420151 -0.26108566 0.0035741657 0.17648381
0002b0 15 b7 82 bd 9c cb 07 3b 04 82 94 3c a4 3b df bd
       -0.063825764 0.0020720726 0.018128403 -0.109000474
0002c0 b3 36 12 bf 5e 8f 02 3e 11 4c 3c 3e a5 52 a8 3d
       -0.57114714 0.12750003 0.18388392 0.08218888
0002d0 4f bc 98 3e 5a aa 38 3e d7 c9 7c bd 08 18 c0 3d
       0.29831168 0.18033734 -0.061715927 0.093795836
0002e0 70 1f cf bc 8e d4 27 bd a4 d3 43 be 3c 34 41 3f
       -0.025283545 -0.040974192 -0.19123703 0.7547033
0002f0 56 ef 6b 3e 6e 5f ad bc 99 bf a5 bd 7e 58 1a bd
       0.23040518 -0.021163668 -0.08093185 -0.03768205
000300 ff ff 67 bd 2e 87 80 bd bd 5b 8d be 85 a9 d7 be
       -0.05664062 -0.062757835 -0.27609053 -0.4212152
000310 3f 0a d4 3e f1 de 29 3e 20 10 16 bd 3d a6 43 be
       0.41414067 0.16588952 -0.03663647 -0.19106384
000320 08 db 8f 3e 1b 6d da 3e 9d ef e1 3d 4b 84 61 bd
       0.28096795 0.42661366 0.11032031 -0.055057805
000330 f3 d5 79 be da b0 24 3e 2d 99 c6 be 82 3d b9 bd
       -0.24398021 0.16083089 -0.3878874 -0.09044935
000340 58 dc 11 bd 61 ee d5 3d db 2e a8 bd ad 87 ad 3e
       -0.035610527 0.10445858 -0.08212062 0.33892575
000350 40 b6 64 3d a9 ca 1b be 6a 66 d1 bd 60 95 09 bd
       0.05583787 -0.15214027 -0.10224612 -0.03358972
000360 77 7a 7c bc 92 71 b6 3e 9f 98 cb 3d 0c f5 af 3e
       -0.015410057 0.35633522 0.099412195 0.34366643
000370 0a 43 b9 bd 5f 32 5d 3e 99 35 3b 3f 60 73 e6 3d
       -0.0904599 0.21601246 0.7312866 0.11252475
000380 2c d1 1c 3f f9 49 ae be 5f de 7e bd 08 79 63 3c
       0.6125667 -0.34040812 -0.06222379 0.013883837
000390 29 fe 26 3f 5d 50 54 bc 30 3a bc be 03 d2 61 3e
       0.6523157 -0.012958613 -0.36763144 0.2205277
0003a0 52 6b 1f bd 38 e9 56 bd 5e 4a 0b be 82 f7 a0 bd
       -0.038920708 -0.05246851 -0.13602588 -0.07859708
0003b0 9f 38 5f 3e 7b 09 d5 3d cb 46 93 3e 70 4f c2 3d
       0.21798943 0.10402199 0.28764948 0.09487808
0003c0 7a ed 24 3d b5 c7 e2 bd bc 7d 1a 3d 34 a9 ea 3d
       0.040265538 -0.11073247 0.037717566 0.11458054
0003d0 07 a3 28 bd 66 28 46 be 46 cc 69 bd c6 68 c3 be
       -0.0411711 -0.19351348 -0.057079576 -0.38165873
0003e0 5f 77 03 3e c9 25 1a be f8 65 cb be 3c e7 0c bf
       0.12838505 -0.15053476 -0.39726233 -0.55040336
0003f0 7f cf b2 be 1c 7c 40 3e c8 5d dc be b2 d2 48 3e
       -0.34923932 0.18797344 -0.430403 0.19611624

bias f4 [32]
000000 a4 54 76 bd 3e bb 8c bd b8 3a 9c bd 39 29 80 bd
       -0.060139313 -0.06871651 -0.07628387 -0.062578626
000010 4f 63 71 3e 6b 84 5a bd 3d 63 8c bd e9 6f c2 bd
       0.2357304 -0.05334894 -0.06854866 -0.094940014
000020 07 5f b8 bd 35 58 0e 3d ea 0d 79 3d 97 72 47 bd
       -0.090025 0.03475209 0.060804285 -0.048693266
000030 14 9b 80 bd ce e7 b6 bd a7 7b 83 bd 73 ba de bd
       -0.06279579 -0.08930932 -0.06420069 -0.10875406
000040 4d d6 01 be e3 8e 6c bd 55 b0 4f 3e 90 ce cc bd
       -0.12679406 -0.057753455 0.20282109 -0.10000336
000050 73 c3 08 be c8 61 c4 38 47 00 86 bd be 8c 43 bd
       -0.13355808 9.3642215e-05 -0.06543022 -0.047741644
000060 9e 13 fc 3c 71 40 0d be 9d 6e 27 bd 3d c8 2a 3d
       0.030771073 -0.13794114 -0.040876973 0.04169487
000070 c4 8a 74 bd 78 a7 b5 bd b9 8e 45 bd 06 cb 9b bd
       -0.05970265 -0.08869833 -0.048231814 -0.07607083

weight f4 [32, 64]
000000 8b 4e c9 3d 2e c1 7c 3d 09 56 9b 3d c5 1f 97 be
       0.09829434 0.061707668 0.07584769 -0.29516426
000010 ec 89 72 bd 4a 93 4d be 04 32 24 be 7d 35 70 bd
       -0.059213564 -0.20075718 -0.16034704 -0.05864476
000020 4f b5 87 be 28 5d 0e 3e 77 2b 86 3c f2 6a 77 be
       -0.26505515 0.13902724 0.016378148 -0.2416189
000030 4c b1 a4 bd 1b 41 5c bd d7 72 3e 3d c6 28 8f 3d
       -0.08041629 -0.053773027 0.04649624 0.06990199
000040 17 8b 07 be 96 19 18 be 83 ba 21 be 3e 5d 76 3d
       -0.13236652 -0.1485351 -0.15793805 0.060147516
000050 21 0b 96 be 3e e4 9f bd 99 66 3d bd 02 7b ef 3c
       -0.29305366 -0.078072056 -0.046240423 0.02923346
000060 24 f7 43 3d b9 e4 49 be 9b 69 31 be ec 2e 87 3e
       0.047843114 -0.19716157 -0.17325442 0.26402986
000070 ee c4 4a be 2c aa d8 bd 70 7a 5f be 89 ec d2 ba
       -0.19801685 -0.10579333 -0.2182405 -0.0016092221
000080 3f f7 5e bc d2 94 94 3d ed 2a 1a bc 73 00 1e be
       -0.013608753 0.07254948 -0.009409648 -0.15429859
000090 ed da 9b be 57 dc 17 be 8d e6 1c be e2 ef fb bd
       -0.30440465 -0.14830147 -0.15322323 -0.123016134
0000a0 49 11 e0 bd 6b 4d 97 be ba 24 51 bd 5d bb 31 3e
       -0.10940797 -0.29551253 -0.051060416 0.1735663
0000b0 a6 9f 01 3d 8f 03 0d be d1 77 20 bd ab 7d 3b be
       0.031646393 -0.13770889 -0.039176766 -0.18309657
0000c0 a4 7f e5 3d 00 01 1b 3d 48 3e 88 be b6 fd 3c be
       0.11205986 0.03784275 -0.26610017 -0.18456158
0000d0 ef 20 24 be e8 3f 3b bd 9f 33 4b bd 08 af 2c 3d
       -0.16028188 -0.045715243 -0.049609777 0.04215911
0000e0 cc 2b 13 be 2a e0 e7 bd 6f a2 17 3e 8c a3 1a be
       -0.14372176 -0.11322053 0.14808057 -0.1510145
0000f0 98 af 71 be 69 75 f5 bc b1 d3 40 bd 0b 89 dc 3d
       -0.2360214 -0.029963212 -0.047076885 0.10768326
000100 ca f8 fd 3d 70 d7 5a 3e d0 35 12 be 27 8e 2a be
       0.124009684 0.21371245 -0.1427834 -0.1665579
000110 53 67 fc 3d 98 57 1b bd 35 e6 92 be 04 24 07 bd
       0.12324395 -0.037925333 -0.2869126 -0.03299333
000120 b9 85 9b bd 4c bc e4 bd a0 53 dd bc 5f eb 52 be
       -0.07593865 -0.11168727 -0.027017415 -0.205976
000130 14 2f f3 bd 86 c0 85 be 33 6b 1a be 8b 48 46 3d
       -0.11874214 -0.26123446 -0.15079956 0.048409026
000140 c8 8b 8b bd ca bc 6a be c0 11 9c be f1 36 87 bd
       -0.068137705 -0.2292358 -0.30482292 -0.06602276
000150 b4 d1 d8 3d f1 21 1c be 40 54 15 be 4a fd 7e 3d
       0.10586873 -0.15247323 -0.1458292 0.062253274
000160 d7 e0 09 3e cc 2f 00 be 14 cd a6 be 1a 98 93 3c
       0.13464676 -0.12518233 -0.32578337 0.018016864
000170 a5 74 45 be e0 56 17 bc fd 3c b3 3d 5e 9a 1b bc
       -0.19282778 -0.009237021 0.08751867 -0.009497253
000180 b5 ef 95 be 93 8f fb bd 78 08 cf bd 7b c3 a4 bc
       -0.29284444 -0.12283244 -0.10109037 -0.020112744
000190 58 0f 7e be 1d 59 94 3d b1 85 90 be ec 98 26 3e
       -0.2481054 0.072435595 -0.28226998 0.16269273
0001a0 0e 62 09 3e b8 64 83 be 46 79 a8 3d b5 53 99 3d
       0.13416311 -0.2566278 0.08226256 0.07486669
0001b0 18 af 11 bc 04 1e 80 3b d9 67 8a be 27 c3 ce 3d
       -0.008891843 0.003909828 -0.27032354 0.10095816
0001c0 5a 86 20 be 70 51 17 be 27 02 01 3e 60 a5 66 bc
       -0.15676251 -0.1477716 0.12598477 -0.014077514
0001d0 ac 64 1c be 44 67 84 be 34 c2 4e be 88 91 bd bd
       -0.15272778 -0.25860035 -0.2019127 -0.092562735
0001e0 90 24 f9 bd d4 ba c5 bd bf 44 d7 3d 2e 24 cc bc
       -0.12165177 -0.09654775 0.10511159 -0.024919596
0001f0 3c 7a 84 be c8 3b 3b be 68 72 56 bd c8 5e 56 be
       -0.25874507 -0.18284523 -0.0523552 -0.20934594
000200 ab 7b 42 be b9 53 9c 3d e5 15 02 3e 5c 9b 82 3d
       -0.18992488 0.07633156 0.12703665 0.06377289
000210 9a b4 f5 3d ba 2f 48 be 84 f8 9f 3c cc dc 15 bd
       0.11997338 -0.19549456 0.019527681 -0.03658752
000220 8e 5f 23 be da 55 11 3e 95 db 74 be 42 55 5a bd
       -0.1595442 0.14192906 -0.23911889 -0.053303964
000230 46 9d 6d 3d 34 84 d0 bd c7 ac 9a 3d d5 14 f2 bd
       0.058011316 -0.10181466 0.07552486 -0.1182038
000240 66 25 48 be 70 52 62 3e 56 8e bc 3d aa ce 03 3e
       -0.19545516 0.2210176 0.09206836 0.12871805
000250 d3 99 9f bc ca b8 4f bd 45 5b a2 be c9 2b 66 bd
       -0.019482529 -0.050713338 -0.31710258 -0.0561941
000260 6f 7d 31 3d 78 e0 5d be 82 dc a6 be df a8 14 3e
       0.043332513 -0.2166766 -0.3259011 0.14517544
000270 ec 01 66 be 66 9b 7c be 26 3c f3 3d b7 1f 9f 3d
       -0.2246167 -0.24668655 0.11876707 0.07769721
000280 43 7b 8f 3d 53 01 44 be 21 ff 9a be 16 43 af 3b
       0.07005932 -0.1914113 -0.30272773 0.0053485734
000290 d4 5a 4d be ab fd ed 3d f4 95 49 be b6 70 cd be
       -0.2005418 0.11620649 -0.19686109 -0.40125054
0002a0 c4 b1 53 be 4d ad 8d 3d 6a 49 7b be fa fa 28 be
       -0.20673281 0.0691782 -0.24539724 -0.1650199
0002b0 f1 f5 76 be 18 a8 cb 3c 01 81 1f bd b0 74 17 3e
       -0.24117257 0.024860427 -0.038941387 0.14790606
0002c0 e5 f6 05 bc 63 54 7e be 2c ec b9 3c c6 7e 6b bd
       -0.00817654 -0.24836878 0.022695623 -0.057493947
0002d0 ea d3 1d 3d b5 47 3b 3c 03 46 c8 3d 29 98 80 be
       0.038532175 0.0114306705 0.09778979 -0.2511609
0002e0 c2 d0 9e 3d d0 02 38 3e 6f 7e 6e be a3 de f0 3d
       0.07754661 0.17969823 -0.23290418 0.117612146
0002f0 ca 47 2d 3e 69 4d 0b be 3e 6b 83 3d 5f d6 02 bd
       0.16921917 -0.13603748 0.06416939 -0.03194272
000300 2e 00 ac 3d ed 4a 96 be 41 9b 91 be da 00 e6 3d
       0.08398472 -0.2935404 -0.28438762 0.11230631
000310 0d 77 f9 bd 2f 51 8a 3d 9d 5c 92 be d0 9d 01 3d
       -0.1218091 0.06753766 -0.28586283 0.031644642
000320 0a 30 a0 be f1 ce 72 bd 26 df 25 be e8 a3 86 be
       -0.3128665 -0.059279386 -0.16198406 -0.26296926
000330 0f 2d bf bd 1f 8f 10 3e 57 68 78 be 58 cc a4 bd
       -0.09334766 0.14117096 -0.24258552 -0.08046788
000340 05 e4 a1 bd a5 7a c5 bd e1 12 75 be e5 07 80 be
       -0.079048194 -0.09642533 -0.23932983 -0.25006023
000350 80 60 42 be 31 55 88 bb 99 1c 84 bd cc 71 6f be
       -0.18982124 -0.004160546 -0.06450767 -0.23383254
000360 14 6b a3 be e3 c9 9e bd 06 1e 17 3d f6 74 15 be
       -0.31917632 -0.077533506 0.036893867 -0.14595398
000370 9c c6 f4 bd d9 03 78 3d d5 32 8d be 87 5c 15 3e
       -0.11951944 0.060550544 -0.27577844 0.14586078
000380 33 be 8f bd a5 58 f1 3c 86 08 d0 3d 8a 1c 19 3e
       -0.070186995 0.029461214 0.10157876 0.14952293
000390 2b 95 6a bd ab 12 e1 ba f1 63 e0 bd f0 ba fb bd
       -0.057271164 -0.0017171701 -0.10956562 -0.12291515
0003a0 61 e9 76 bd 2d 47 e3 3d 4c b9 c5 3d e5 15 3b 3e
       -0.06028116 0.1109756 0.09654483 0.18270071
0003b0 e9 f8 2a bd b3 c9 35 be 21 e9 e2 3d de c5 97 be
       -0.041741285 -0.17752723 0.11079622 -0.29643148
0003c0 e1 f4 8f be 05 f9 98 be bf 3f 51 bd 19 8f 08 3e
       -0.28116515 -0.29877487 -0.051086184 0.13335837
0003d0 a6 4b e5 bc 48 37 c5 bd 1a 1e a9 bd da ba 7b be
       -0.027990174 -0.09629685 -0.082576945 -0.24582997
0003e0 39 12 71 be fa ed 3d be 36 99 a7 bd 66 d7 f3 bd
       -0.23542108 -0.18547812 -0.081835195 -0.11906318
0003f0 25 bb 31 be 78 5a 9e be a8 40 32 3d fb 7f 2d bd
       -0.17356546 -0.30928397 0.043518692 -0.04235838

bias f4 [8]
000000 51 8b 5d 3d 9f a6 9b 3e 46 b0 2b bd bc 87 17 be
       0.05408794 0.3040056 -0.041916154 -0.14797872
000010 3d 64 9f be 83 ab 69 3d c5 d5 e9 bd ce 0c 09 be
       -0.31131163 0.057048332 -0.114177264 -0.13383791

weight f4 [8, 32]
000000 cd 91 8e be f1 5a 9e be 55 1b d5 be de 95 58 be
       -0.27845612 -0.30928758 -0.41622415 -0.2115092
000010 c2 20 ae 3e 49 33 58 3e 71 ec 4d 3d 1d f0 65 be
       0.34009367 0.21113314 0.050274316 -0.22454877
000020 d1 8c 20 be 1d 34 c1 3e ce 49 9a 3e 40 45 c6 3d
       -0.15678717 0.37735072 0.30134434 0.09681177
000030 24 79 e9 bd 8f 46 22 3e 2f f5 45 3e 2f 96 9a be
       -0.11400059 0.15847228 0.19331811 -0.30192706
000040 7e 29 04 3e e1 ff 98 3e 29 83 a1 3e 59 24 cd be
       0.12906453 0.2988272 0.3154538 -0.40066794
000050 3a 8d 1d 3e 41 a7 5d 3e f2 3a 34 be 54 d5 df 3d
       0.15385905 0.21645834 -0.17600611 0.10929361
000060 d9 cd a9 be 9b a8 a1 be bf e3 97 be b9 00 07 3f
       -0.33164862 -0.31573948 -0.29665944 0.5273548
000070 31 fe 3a be 3b 89 4f be 2a 37 aa be 86 f2 cf 3c
       -0.18261029 -0.20267193 -0.33245212 0.025384199
000080 de ab 69 be e4 39 89 3d 5a 10 9b be 03 7f 2f 3d
       -0.22819468 0.06700495 -0.30285913 0.042845737
000090 8c 01 50 be ef af 28 be 60 38 1d 3e 9e 81 ad be
       -0.2031309 -0.16473363 0.15353537 -0.33887953
0000a0 a8 60 c7 be 5a d8 1a be f8 de 75 be a0 70 9d be
       -0.3894093 -0.15121594 -0.24010837 -0.3074999
0000b0 2b db ca 39 37 83 83 bd f0 1e 04 be 22 46 88 be
       0.00038691735 -0.064215116 -0.12902427 -0.26616007
0000c0 ba a7 44 be 30 b7 e0 3b 55 b8 c4 be 12 2f f0 bd
       -0.19204608 0.006857775 -0.38421884 -0.11727728
0000d0 6a b1 9a 3e c8 7c d8 3e 0b cf 61 3e 11 ef 84 3d
       0.3021348 0.422827 0.22051637 0.06490911
0000e0 65 5b 27 3d 9b 6d b9 be 77 ec fe 3e 33 60 4b bb
       0.040858645 -0.36216435 0.49789783 -0.003103268
0000f0 95 db e9 3d eb 87 ae be 02 75 d1 3e 11 b7 6e be
       0.11418835 -0.34088072 0.40909582 -0.23312022
000100 a6 0e 66 bd f8 4c 8a 3e 23 c0 bd be ea c8 89 bc
       -0.056166314 0.27011847 -0.3706065 -0.016819436
000110 70 24 16 be b2 ba 7c 3e 23 8b 43 bd 37 c3 aa 3e
       -0.14662337 0.24680594 -0.047740113 0.33352062
000120 6c 99 9a 3e 3d ca 59 3e 47 e0 59 bd 57 e8 38 be
       0.30195177 0.21268554 -0.053192403 -0.1805738
000130 26 92 de bd e7 ce 5a 3d c3 30 d1 3d fd 8c 37 be
       -0.10867719 0.053419974 0.10214379 -0.17924877
000140 3f c8 d6 3d 38 b4 1b 3e ef 30 fa bc 82 e2 10 be
       0.10487413 0.15205467 -0.030540911 -0.14148906
000150 da da 33 bf 19 5e 8c be 80 2a 59 be a3 7b 89 3e
       -0.70255816 -0.2741554 -0.21207619 0.2685214
000160 8f c3 86 be a2 3c 79 be 24 d9 95 3e d9 ce d6 3d
       -0.26321074 -0.24339536 0.29267228 0.10488672
000170 e1 5f 70 be ef 73 90 be 68 c2 b2 be 96 64 9a bd
       -0.23474075 -0.2821345 -0.34913945 -0.075387165
000180 89 3a 72 3e 5f 90 8c 3d ee 1e b7 bd 6d 06 1c 3e
       0.23655142 0.06863474 -0.08941446 0.15236826
000190 9e a8 d7 be 98 c3 9a 3e f4 92 67 be c4 f4 6f 3e
       -0.42120832 0.3022735 -0.22614652 0.23433214
0001a0 07 cd 1b 3e 7e 98 e1 3c 85 f9 62 3d 57 6e 98 ba
       0.1521493 0.027538534 0.05541374 -0.0011629564
0001b0 5f e9 61 b9 f3 23 d4 be 3d 4e 70 3e 64 b8 6d be
       -0.0002154461 -0.41433677 0.23467346 -0.2321487
0001c0 a2 85 21 3f 42 ff 81 bd 18 14 06 3f 65 4a 36 3f
       0.6309453 -0.06347515 0.5237441 0.7120727
0001d0 c1 67 df 3e 4a 35 9c 3c 6d f1 6b 3d 38 8a 6f 3e
       0.43633845 0.019068379 0.05760329 0.2339257
0001e0 52 bc ef bd 77 e6 ce 3d 7e 2c 9f be 2a 9b be be
       -0.11705841 0.101025514 -0.31088632 -0.37227756
0001f0 e8 b2 2e 3e 40 e7 b9 3d a3 ca b7 be a3 71 a5 be
       0.17060435 0.090773106 -0.35896787 -0.3231326
000200 d4 ea 71 3e 0d 3c 8a 3d 4b 21 6a 3e bf 2b 77 be
       0.23624736 0.06749735 0.22864263 -0.24137782
000210 a1 92 a2 bd 4e aa b0 3e e2 8f de 3d 41 ca 62 3c
       -0.079381235 0.34504932 0.10867287 0.013842166
000220 cf c9 8f be 42 a6 7a bd c9 c8 cc be be cf a0 3e
       -0.28083655 -0.061193712 -0.39996937 0.31408495
000230 7d e7 34 3e aa a8 16 be d3 84 3e 3d cd e5 0a 3d
       0.17666431 -0.14712778 0.04651339 0.03391056
000240 b2 47 0c 3f d7 c4 05 be 4f 53 eb 3e 30 08 42 bf
       0.547969 -0.1306337 0.45961997 -0.75793743
000250 dd 9f 65 3f b1 df 20 be 59 a4 b9 3d 6a 3c 76 be
       0.89697057 -0.15710331 0.0906455 -0.24046484
000260 8a 55 0a 3e 31 ac b3 3e 14 10 ed 3e c2 62 97 bc
       0.13509193 0.3509231 0.4630133 -0.018479709
000270 0d 96 ed 3d a9 b2 7d be 2e ac 48 3e 6c be c3 be
       0.116008855 -0.24775185 0.19596931 -0.38231218
000280 99 9a 33 3e 24 a9 90 3e 69 88 82 3c 48 f1 ed 3c
       0.17539443 0.28254044 0.015934186 0.029045716
000290 54 28 51 be dc 32 87 3e 23 3c d3 3e 53 8d df be
       -0.2042554 0.2640599 0.41256818 -0.4366251
0002a0 1d 7e 4a 3e 54 54 68 3b 02 9c af 3e c0 17 ac be
       0.19774671 0.0035450654 0.34298712 -0.3361187
0002b0 dd 37 4f be 27 e2 84 bd c2 3c f9 3c 3c 14 84 3e
       -0.20236154 -0.06488448 0.03042448 0.25796688
0002c0 39 10 27 3f d5 4d 88 3e a3 72 28 3f f2 8d 7d 3d
       0.6525913 0.2662188 0.6579992 0.061902948
0002d0 e2 d5 ae be e1 a1 ae 3e b4 fc a5 bd 11 12 55 3e
       -0.34147555 0.3410788 -0.0810484 0.20807673
0002e0 8f 12 a5 be f3 fe b2 3e 03 ff c9 be 3d c2 cd 3e
       -0.32240722 0.34960136 -0.3945237 0.40187255
0002f0 2e 27 d6 bd aa 12 ac be 36 36 27 be 48 cd 13 be
       -0.10456692 -0.3360799 -0.16329274 -0.14433777
000300 c1 df b5 be 9f ce b1 be a5 41 80 be 13 90 95 3e
       -0.35522273 -0.34727952 -0.25050083 0.29211482
000310 ae 0e 8c be cf 7c a0 be 1e ba 91 3e 17 68 12 3e
       -0.2735495 -0.3134522 0.2846231 0.1429752
000320 5e 8f 0b be 58 25 9b 3e 1b 2c cb bd 2e 4e 92 3e
       -0.13628909 0.3030193 -0.09920522 0.2857527
000330 87 77 8e 3e b8 6a e6 be 4d 57 07 be bf 15 8b 3b
       0.27825567 -0.45003295 -0.13216896 0.0042445357
000340 bc 13 64 be 2e ed a1 be fb c8 8a bd 38 93 1c 3f
       -0.22273153 -0.31626266 -0.06776615 0.6116214
000350 dc 03 81 3e 8a 91 1b bd 68 57 a0 be 1d 7f d7 bd
       0.25198257 -0.037980594 -0.31316686 -0.10522292
000360 d3 d5 10 be 7a 20 8a be 7f a8 8c 3e 35 57 17 3f
       -0.14144067 -0.26977903 0.27472302 0.5911744
000370 13 59 20 be 7d 0b 02 3e e2 3b 8d 3e 2e 53 93 3e
       -0.15658979 0.12699695 0.2758475 0.287744
000380 93 db 50 3e 8f 1e 15 3c 12 bb 05 3d 00 b2 f6 bc
       0.20396261 0.009101524 0.032649107 -0.030114174
000390 51 39 c3 3e 1a c4 75 3e ce d4 34 be 1e e5 dd 3e
       0.38129666 0.24000588 -0.17659304 0.43338865
0003a0 62 99 8a bc cf 6a 71 bd 70 90 3d 3e 03 2a 62 3d
       -0.016918842 -0.05893975 0.1851213 0.055215847
0003b0 d5 f6 68 be b9 1e 7d bd d0 46 35 bd 06 7c 20 be
       -0.22750409 -0.061796878 -0.044256985 -0.15672311
0003c0 b1 50 cc bd c6 40 84 3e f0 51 b9 3e 5c 33 d4 bd
       -0.09976328 0.25830668 0.36195326 -0.103613585
0003d0 b6 61 2a bd 74 b7 3e be 35 64 5e 3e ee c0 d5 3c
       -0.04159709 -0.1862467 0.21717913 0.026092973
0003e0 f9 70 f7 be c8 39 9e bd e4 c0 94 3e 37 26 da 3e
       -0.4832838 -0.07725865 0.29053414 0.4260728
0003f0 7b c8 b2 3d 50 78 6a 3e 14 fc 73 bc e2 18 85 be
       0.08729645 0.22897458 -0.014891643 -0.25995547
