Model_deployment/models/model_complete_3capas_sin_closeness (1).pth (torch, 21360 bytes, 4 tensors)

bias f4 [64]
0	0xbd309b43	-0.04311682
1	0xbd74a585	-0.059728164
2	0xbde4b89d	-0.11168025
3	0xbd8ea4e6	-0.06965046
4	0xbbcede00	-0.0063130856
5	0xbda9f9e4	-0.08299616
6	0x00000000	0.0
7	0xbd83d16b	-0.06436428
8	0x3bbd2e45	0.005773338
9	0xbd9ee1f2	-0.077579394
10	0xbdf0c746	-0.117567584
11	0xbd75f84c	-0.060051247
12	0xbda109e0	-0.07863212
13	0xbda1c117	-0.07898157
14	0xbda390ee	-0.079866275
15	0xbda946f4	-0.08265486
16	0x3e945252	0.28969055
17	0xbdf15692	-0.1178409
18	0xbdf53373	-0.11972704
19	0xbdf89203	-0.121372245
20	0x3c022bc9	0.0079450095
21	0x3c10a71c	0.0088289045
22	0xbd176961	-0.03696573
23	0xbd8d26f0	-0.06892192
24	0xbe20e57c	-0.15712541
25	0xbd8d8259	-0.069096275
26	0xbdc3d1bf	-0.0956149
27	0xbe056b64	-0.13029248
28	0xbdc63846	-0.09678702
29	0xbd75e75a	-0.060035087
30	0xbd586af7	-0.052836385
31	0xbcbc78f2	-0.02300689
32	0xbda3129c	-0.07962534
33	0xbdaab354	-0.083349854
34	0xbd8cdb7a	-0.06877799
35	0xbd9ece63	-0.07754209
36	0xbd95d9e6	-0.073169515
37	0xbd4895b2	-0.048970886
38	0xbe020c73	-0.12700062
39	0xbdc74a59	-0.097309776
40	0xbd96901e	-0.07351707
41	0x3cd63320	0.026147425
42	0xbd63a714	-0.05557926
43	0xbd7fb8e1	-0.062432174
44	0xbd75f5b5	-0.060048778
45	0x3e2823fa	0.16419974
46	0xbddc0e4a	-0.10744913
47	0xbd9ba3c2	-0.07599594
48	0xbc9f7264	-0.019463725
49	0xbe0ec43e	-0.13942048
50	0xbd5baf2d	-0.053633858
51	0x3eae751d	0.34073725
52	0xbd817213	-0.06320586
53	0xbd83a0ba	-0.064271405
54	0xbd197506	-0.037465118
55	0x3df9702d	0.12179599
56	0xbda8fd1d	-0.082514025
57	0x3ec38205	0.38185135
58	0x3e2a054a	0.1660358
59	0x3d4eeffb	0.050521832
60	0x3d2f2f33	0.042769622
61	0xbdb6d244	-0.08926824
62	0xbd5456da	-0.05184064
63	0xbdb44f7a	-0.088042215

weight f4 [64, 22]
0	0xbe1e9f79	-0.15490521
1	0x3de43474	0.11142817
2	0xbe705fb8	-0.23474014
3	0xbe5b7a3e	-0.2143335
4	0xbda0dbf2	-0.07854451
5	0xbdc34c19	-0.09535999
6	0xbe374e18	-0.17900884
7	0xbdf71bf9	-0.12065882
8	0x3ea4f4c6	0.32217997
9	0x3b2fb2b8	0.0026809406
10	0xba51d10b	-0.0008003867
11	0xbb559f30	-0.0032596104
12	0x3e61b545	0.22041805
13	0x3de9e4fb	0.11420628
14	0x3dc2e274	0.09515849
15	0x3e50283d	0.2032785
16	0x3db07f83	0.08618071
17	0x3e91da29	0.28486755
18	0xbd8ff2cf	-0.07028734
19	0x3b8f479d	0.0043725506
20	0xbdf0ec86	-0.11763863
21	0x3e107e47	0.14110671
22	0xbda4807a	-0.080323175
23	0x3d65ada7	0.05607381
24	0xbe89b2cb	-0.2689422
25	0x3cd03785	0.025417099
26	0xbe26c69d	-0.16286702
27	0xbe90339b	-0.28164372
28	0x3e30260a	0.17202011
29	0x3d9a6166	0.075381085
30	0x3bddd99e	0.0067703268
31	0xbcdc93aa	-0.02692588
32	0xbe07a844	-0.13247782
33	0x3ea12336	0.31472176
34	0xbea2fa00	-0.3183136
35	0x3da8e183	0.08246138
36	0x3d0f2b58	0.034953445
37	0xbd210dfe	-0.039319985
38	0x3db0dd7e	0.08635996
39	0x3e2be5a8	0.16786826
40	0x3e3071dd	0.17230935
41	0x3e74c4f0	0.2390325
42	0xbc13c43f	-0.009018957
43	0x3e1afc86	0.15135393
44	0xbe3351fc	-0.17511743
45	0xbd6c8da4	-0.057752267
46	0xbd9686fb	-0.07349964
47	0xbe86a4c7	-0.2629759
48	0x3e58ac37	0.21159445
49	0xbe04f3cd	-0.12983628
50	0xbe91e286	-0.28493136
51	0x3ce1719f	0.02752
52	0x3e8409db	0.2578877
53	0xbe901140	-0.2813816
54	0x3d2a4b87	0.041575935
55	0x3d0f50ea	0.034989275
56	0x3d566bf4	0.052349046
57	0x3e0a031a	0.13477746
58	0x3e2fe45a	0.17176953
59	0x3e4da47d	0.20082279
60	0x3d507e4b	0.050901692
61	0xbe0bcfda	-0.13653508
62	0x3c2ec257	0.010666451
63	0x3c9cff06	0.019164573
64	0xbdba05ea	-0.09083159
65	0xbd13e852	-0.03611023
66	0x3d387ec4	0.045042768
67	0x3ee5f536	0.44913644
68	0xbde81cec	-0.113336414
69	0xbe45f470	-0.19331527
70	0x3c465a71	0.012106524
71	0x3d2bfd6a	0.04198972
72	0x3e703d5c	0.23460907
73	0x3d2f2f5b	0.04276977
74	0xbd2b2e2d	-0.041792084
75	0xbe1301d8	-0.14356172
76	0xbea6c5d2	-0.325728
77	0xbe15a153	-0.14612322
78	0x3d14c38a	0.036319293
79	0xbd048820	-0.03235638
80	0xbbd99528	-0.0066400953
81	0xbdc60fd7	-0.0967099
82	0x3e41cd58	0.18925989
83	0xbda6075d	-0.08106873
84	0x3d49b784	0.04924728
85	0xbe304cd2	-0.17216805
86	0xbe27608e	-0.16345426
87	0xbd933648	-0.07188088
88	0x3e7544b7	0.23951994
89	0xbf357ce3	-0.70893687
90	0x3d231ce9	0.039822493
91	0xbe34e14e	-0.17664072
92	0xbe8e6a2c	-0.27815378
93	0x3df0b59b	0.117533885
94	0xbde3eaf9	-0.11128802
95	0xbe7978b1	-0.24362446
96	0x3e6be6df	0.23037289
97	0xbeb6c47b	-0.35696778
98	0x3e10bae0	0.14133787
99	0x3d3bd696	0.045858942
100	0x3e36b1bd	0.1784124
101	0xbdee72af	-0.11642968
102	0x3de91159	0.11380262
103	0xbdb379b8	-0.087634504
104	0xbda57483	-0.080788635
105	0x3ea73764	0.32659447
106	0xbe416380	-0.18885612
107	0xbcfb6c00	-0.030691147
108	0x3d23d451	0.039997403
109	0x3d8c337a	0.06845756
110	0xbe656d03	-0.22404866
111	0x3de553f7	0.11197656
112	0xbd3d77f5	-0.046256978
113	0x3e449d74	0.19200689
114	0xbd9a319c	-0.075289935
115	0xbe520d4b	-0.20512883
116	0x3e174457	0.14772163
117	0xbd672808	-0.05643466
118	0x3d903c41	0.070427425
119	0xbe058e7a	-0.13042632
120	0xbd1937e2	-0.03740681
121	0xbde1a1b7	-0.11017173
122	0xbedd3a36	-0.43208474
123	0x3ded607a	0.11590667
124	0xbe244913	-0.160435
125	0x3edf685a	0.436343
126	0x3e4223ef	0.1895902
127	0xbe1602bf	-0.14649485
128	0x3e9e6092	0.30933052
129	0xbdda2eb7	-0.106534414
130	0xbe831b60	-0.25606823
131	0xbdb9a19a	-0.09064026
132	0xbe1c65c2	-0.15273193
133	0x3e64c6aa	0.2234141
134	0xbe65e987	-0.22452365
135	0xbc10cfa6	-0.00883857
136	0xbe1f3d58	-0.15550745
137	0x3c9e316b	0.019310674
138	0xbe0ac6ff	-0.13552473
139	0x3e8567e1	0.26055816
140	0x3ccd6e64	0.025077052
141	0x3db15529	0.08658821
142	0x3e24315d	0.16034456
143	0x3c46aab8	0.012125663
144	0xbdadb96e	-0.084826335
145	0xbcb6ce7f	-0.022315262
146	0x3e4c27c9	0.19937052
147	0xbde05bf3	-0.10955038
148	0xbe062770	-0.13100982
149	0xbdb03d3a	-0.08605428
150	0x3db19bcd	0.08672295
151	0x3db0876f	0.08619582
152	0x3dd49cc1	0.10381461
153	0xbcf66283	-0.03007627
154	0x3e37c8f9	0.17947759
155	0xbe085ba5	-0.1331621
156	0xbe877c1b	-0.26461872
157	0xbe8c252e	-0.27372116
158	0xbe892103	-0.26782998
159	0xbe1abdf4	-0.15111524
160	0xbf208c30	-0.6271391
161	0xbe8957f0	-0.26824903
162	0x3e1933a5	0.14961107
163	0xbf3f9b45	-0.748463
164	0x3f8ad6ff	1.0846862
165	0x3f151934	0.5824158
166	0xbe353301	-0.17695238
167	0xbe2da7d5	-0.16958554
168	0x3e2f0dda	0.17095128
169	0x3f411346	0.75420034
170	0xbe4becac	-0.19914502
171	0x3e21dba1	0.15806438
172	0x3ec80a12	0.39070183
173	0x3f09d4ad	0.5384014
174	0x3e906f15	0.2820975
175	0x3f48f67f	0.78501123
176	0xbe919001	-0.2843018
177	0xbdc733b8	-0.097266614
178	0x3f446aae	0.7672528
179	0x3ea3ff5f	0.3203077
180	0xbab7e434	-0.0014029802
181	0x3ee9fbb6	0.45699853
182	0x3f330cf9	0.6994167
183	0x3df1149c	0.11771509
184	0xbe9e5aca	-0.30928642
185	0xbe5c98e9	-0.21542706
186	0xbe203845	-0.15646465
187	0xbf366cff	-0.71260065
188	0x3ea71a23	0.32637128
189	0x3dd99076	0.10623257
190	0x3f05ceea	0.5226885
191	0xbf60ec6e	-0.87860763
192	0xbc9a7a04	-0.01885701
193	0x3e1d5525	0.15364511
194	0x3e529eb4	0.20568353
195	0xbe4662a0	-0.1937356
196	0xbefe0eb0	-0.4962058
197	0xbf36fcfd	-0.7147978
198	0x3e11a72f	0.14223932
199	0x3f30d368	0.6907258
200	0xbebbd934	-0.3668915
201	0xbe8305bf	-0.2559032
202	0xbdf3d618	-0.119060695
203	0xbe38692c	-0.1800887
204	0xbec7e558	-0.39042163
205	0xbe4a5eb8	-0.19762695
206	0xbe53f4f6	-0.20698914
207	0x3e31b5d6	0.17354521
208	0xbdfe50fe	-0.12417792
209	0x3e918e45	0.28428856
210	0xbe9474b9	-0.28995302
211	0x3ee4bcd7	0.44675323
212	0xbe989cfd	-0.29807273
213	0x3ec743cc	0.38918912
214	0xbe7daf7e	-0.24773976
215	0xbe836940	-0.25666237
216	0x3c2a5960	0.010397285
217	0x3d527dde	0.051389568
218	0x3c896f22	0.016776625
219	0x3e200065	0.1562515
220	0xbc183aad	-0.009291333
221	0xbe6f8f47	-0.233945
222	0xbe2bfbb7	-0.1679524
223	0xbeabd32c	-0.3355955
224	0xbcdd63dc	-0.027025156
225	0xbd435139	-0.04768488
226	0xbe11dbd7	-0.14244018
227	0xbd884aea	-0.06654914
228	0x3e333bca	0.17503276
229	0xbe5d07e6	-0.21585044
230	0xbe36c6c9	-0.17849268
231	0x3e500fa8	0.20318472
232	0xbe8f0a33	-0.2793747
233	0xbdbcca8d	-0.09218321
234	0x3ebadc6e	0.364963
235	0x3ebcb506	0.3685686
236	0xbea8e23b	-0.329851
237	0xbd29c06d	-0.041443277
238	0x3e922eee	0.2855143
239	0x3cfd2c8d	0.030905033
240	0x3ebb8a2d	0.36628857
241	0xbe012ca1	-0.12614681
242	0xbea4df3f	-0.32201573
243	0x3d9216cb	0.07133254
244	0xbe64c728	-0.22341597
245	0x3ac822f8	0.001526921
246	0x3d41b951	0.047295872
247	0x3dbeb725	0.09312276
248	0x3e072a7f	0.13199805
249	0xbd6d255e	-0.057896964
250	0x3d1664c9	0.03671721
251	0x3e08d4ee	0.13362476
252	0xbdb32aff	-0.08748435
253	0xbe070520	-0.13185549
254	0xbdfecdf5	-0.12441627
255	0xbe32a1a4	-0.17444474

bias f4 [8]
0	0xbe6897fb	-0.22714226
1	0x3d651f87	0.05593827
2	0x3d12e361	0.035861377
3	0x3d79c65f	0.060980197
4	0xbd41ee14	-0.04734619
5	0x3db5cccd	0.08876953
6	0xbda1e5f1	-0.07905186
7	0x3d1c44e1	0.038151626

weight f4 [8, 64]
0	0x3db87379	0.090064
1	0x3dd1b3b4	0.10239354
2	0xbdab6247	-0.08368354
3	0x3c6d543f	0.014485418
4	0xbd5c3b94	-0.053767756
5	0xbf1b6fc3	-0.6071741
6	0xbe2da85c	-0.16958755
7	0x3e955bfe	0.29171747
8	0x3f4dfe1b	0.8046586
9	0x3e60b838	0.21945274
10	0x3e5597e3	0.20858721
11	0x3decd340	0.1156373
12	0x3d99148a	0.07474621
13	0xbb515c6d	-0.003194596
14	0xbdeef9b4	-0.11668721
15	0xbd4418c6	-0.04787519
16	0xbec3c524	-0.38236344
17	0xbd09538d	-0.033526946
18	0xbdbbebda	-0.091758445
19	0xbd89680b	-0.06709298
20	0xbe2701fc	-0.1630935
21	0x3de1c400	0.11023712
22	0xbd854738	-0.065077245
23	0xbd73c64d	-0.059515286
24	0x3e1dd44e	0.15413019
25	0xbdb7761b	-0.08958074
26	0x3ef18952	0.4717508
27	0x3e1c3851	0.15255858
28	0x3e432185	0.19055755
29	0x3eaf1ce4	0.3420173
30	0xbd4e376e	-0.05034583
31	0x3d2d8125	0.04235949
32	0x3c144af2	0.0090510715
33	0x3e34e202	0.1766434
34	0x3e4f5bf4	0.20249921
35	0xbe5c6c86	-0.21525773
36	0xbda254ba	-0.079263166
37	0x3e66cfa6	0.22540149
38	0x3dc47c25	0.09593991
39	0xbf9a9cf3	-1.2079147
40	0x3ddb0be3	0.106956266
41	0xbe610440	-0.21974277
42	0xbe5aa316	-0.21351275
43	0xbea8a741	-0.32940105
44	0x3dbc943b	0.0920796
45	0xbdd3176f	-0.10307204
46	0xbd446a4a	-0.047952928
47	0x3e39fac5	0.18162067
48	0x3d20208e	0.039093547
49	0x3e87cd73	0.26523933
50	0x3f0600ba	0.5234486
51	0xbeae337b	-0.3402365
52	0xbf058a8e	-0.5216454
53	0x3ee38ef8	0.44445014
54	0xbea2d130	-0.31800222
55	0xbe6b97f9	-0.23007192
56	0xbd7c8297	-0.061647978
57	0xbf18eed6	-0.59739435
58	0x3ec070a3	0.37585935
59	0x3dffe12d	0.12494121
60	0xbe83b026	-0.25720328
61	0x3e10d93a	0.14145365
62	0xbe9bfbaf	-0.30465457
63	0x3e06338b	0.131056
64	0x3e3a5204	0.18195349
65	0xbcece958	-0.02891986
66	0x3e9edb94	0.310269
67	0xbd4f28ec	-0.050576136
68	0x3d9630aa	0.07333501
69	0x3e07686c	0.13223428
70	0x3e859532	0.2609039
71	0x3ea103ce	0.31448215
72	0x3c90b5d4	0.017664827
73	0xbe77bcd3	-0.24193124
74	0x3e1203e3	0.14259295
75	0xbe40563b	-0.18782894
76	0x3d3ca983	0.046060096
77	0xbe7ba6a3	-0.24575286
78	0x3eba33a0	0.36367512
79	0xbcfa448e	-0.030550268
80	0x3f1b6aa5	0.607096
81	0xbe8f102a	-0.2794202
82	0x3e3abaaa	0.18235269
83	0x3e9d23f4	0.30691493
84	0x3db3932c	0.08768305
85	0x3eaab9bb	0.33344826
86	0x3e1153b2	0.14192083
87	0x3d00ba3b	0.031427603
88	0x3d154cfe	0.03645038
89	0xbe00a821	-0.12564136
90	0xbd28e0eb	-0.041230123
91	0x3ddd23a1	0.10797811
92	0xbe526657	-0.20546852
93	0x3e690b48	0.2275821
94	0xbdf04853	-0.11732545
95	0xbe183275	-0.14862998
96	0xbe97ef93	-0.29674968
97	0xbea70040	-0.32617378
98	0x3e52550d	0.20540257
99	0x3e1de139	0.15417947
100	0xbde5844c	-0.11206874
101	0x3e51d18d	0.20490094
102	0x3e3cee70	0.18450332
103	0x3e8d3c7d	0.2758521
104	0xbe5fce52	-0.21856049
105	0xbe0dd0c8	-0.13849175
106	0xbe965789	-0.2936366
107	0xbdb918f9	-0.09037966
108	0xbdf95e25	-0.1217616
109	0xbe418504	-0.18898398
110	0x3ea7c206	0.32765216
111	0xbc15bc9d	-0.009139207
112	0x3e74220f	0.23841117
113	0xbd5f143a	-0.05446265
114	0x3c76aa48	0.015055247
115	0x3d404634	0.04694195
116	0x3e2c81aa	0.16846338
117	0x3e64b908	0.22336209
118	0x3e48958a	0.19588295
119	0xbdf50a7b	-0.119648896
120	0x3e3b969d	0.18319173
121	0x3f297ece	0.66209114
122	0x3f84266b	1.0324224
123	0xbe3a0797	-0.18166958
124	0xbd9a9a9c	-0.07549021
125	0xbe9bb702	-0.3041306
126	0xbe764515	-0.2404979
127	0xbdf0cc68	-0.117577374
128	0xbe5d80f2	-0.2163122
129	0x3d478c13	0.04871757
130	0xbc4614a1	-0.012089879
131	0xbe4a1142	-0.19733146
132	0x3e8c21f5	0.27369657
133	0xbe12b481	-0.1432667
134	0x3d8c070c	0.068372816
135	0x3e2d20fe	0.16907117
136	0x3e45b1c4	0.19306093
137	0x3d230a5f	0.039804813
138	0xbc01ba17	-0.007917902
139	0xbdec1b15	-0.11528603
140	0x3d5a7d65	0.05334224
141	0xbe164798	-0.14675748
142	0xbeb62200	-0.35572815
143	0x3e8bdebd	0.27318373
144	0x3d03e3d6	0.032199703
145	0xbe8a2e82	-0.26988608
146	0x3ea4554f	0.32096335
147	0x3c8313e9	0.016000705
148	0x3e96ca64	0.29451287
149	0x3ea9f0c5	0.33191505
150	0xbe220ead	-0.15825911
151	0x3e04192c	0.12900227
152	0xbe22e864	-0.15908962
153	0x3d8f1af5	0.069875635
154	0xbcdcf7df	-0.026973663
155	0xbd734aaf	-0.059397396
156	0x3e2ce7b2	0.1688526
157	0x3e9c795d	0.30561343
158	0x3eb2bc06	0.34909075
159	0x3da3ec4e	0.08004056
160	0x3da24fb7	0.07925361
161	0xbe7932cf	-0.24335788
162	0x3e302857	0.17202888
163	0xbd8a5078	-0.067536294
164	0xbc043a97	-0.0080706095
165	0x3dc88fe3	0.09793069
166	0x3a65fe1f	0.0008773524
167	0xbe67bcb4	-0.22630578
168	0x3e848fae	0.2589087
169	0x3ce58997	0.02801971
170	0x3c1222f0	0.008919463
171	0xbe4bfb46	-0.19920072
172	0xbc36554e	-0.011128737
173	0xbec70b65	-0.3887588
174	0x3d5acd63	0.05341853
175	0x3e843e38	0.2582872
176	0x3ea4da74	0.32197917
177	0x3ea37dce	0.3193192
178	0xbe2fabcf	-0.17155384
179	0xbf077464	-0.52911973
180	0xbcbeb910	-0.023281604
181	0x3bcd07d3	0.0062570362
182	0x3e696a0d	0.22794361
183	0xbeabc7dd	-0.3355092
184	0x3e4532f6	0.19257721
185	0x3dfa56cd	0.12223587
186	0x3eec1db7	0.4611642
187	0x3ea647dd	0.32476702
188	0xbed1108b	-0.40832934
189	0xbea4d891	-0.32196477
190	0x3e40fa29	0.18845429
191	0x3e2c9de8	0.16857111
192	0x3e365750	0.17806745
193	0xbe3fdb1c	-0.18735927
194	0x3d205925	0.039147515
195	0x3e3c8ce1	0.18413116
196	0x3e424534	0.18971711
197	0xbe0e3950	-0.1388905
198	0xbe865a84	-0.26240933
199	0xbe82bd97	-0.2553527
200	0xbf725b1d	-0.9467028
201	0xbda7b36b	-0.08188518
202	0x3e1da0ee	0.15393421
203	0xbd700735	-0.058600623
204	0x3e05a8fe	0.13052747
205	0xbdd83614	-0.105571896
206	0x3bd91d3e	0.0066258004
207	0x3d4ebf05	0.05047514
208	0xbaab8ed2	-0.0013088828
209	0x3e3d8982	0.18509486
210	0xbe3b45cd	-0.18288346
211	0xbe70e7ac	-0.23525876
212	0x3e309ce2	0.17247346
213	0xbf4dae2d	-0.80343896
214	0xbe8d00e4	-0.27539742
215	0xbe7e0e4b	-0.2481014
216	0x3e159461	0.14607383
217	0xbe44bfed	-0.19213839
218	0xbe59036e	-0.21192715
219	0x3d9ac6c9	0.075574465
220	0xbe98e769	-0.29864052
221	0xbe13878b	-0.14407174
222	0x3d89f501	0.06736184
223	0xbe2df3c3	-0.16987519
224	0x3e654cc6	0.22392568
225	0x3e5cecca	0.21574703
226	0xbe4c46a8	-0.19948828
227	0xbdd262a2	-0.10272719
228	0xbddd3371	-0.10800827
229	0xbd91e8c9	-0.07124478
230	0x3df2fa3f	0.11864137
231	0x3e137426	0.14399776
232	0xbe479649	-0.19490923
233	0x3e70d7cd	0.23519821
234	0xbe659595	-0.22420342
235	0x3d3c06c6	0.045904897
236	0xbe010794	-0.12600547
237	0x3e5f40e5	0.21802099
238	0xbe912b87	-0.2835352
239	0xbdd79ba7	-0.10527735
240	0x3d14c9e4	0.03632535
241	0xbe12e7d8	-0.14346254
242	0xbeefcdcc	-0.46836698
243	0xbf2ec146	-0.6826366
244	0x3e5816da	0.21102467
245	0x3eade3e0	0.33962917
246	0xbe35fa4b	-0.1777126
247	0xbde08e38	-0.10964626
248	0xbdad6ffa	-0.084686235
249	0xbe0883dd	-0.13331552
250	0xbeb29065	-0.3487579
251	0x3e03de3e	0.12877747
252	0x3ef66b94	0.4812895
253	0x3e798610	0.24367547
254	0x3e24c995	0.16092522
255	0x3cd500ea	0.026001412
