Model_deployment/models/model_complete.pth (torch, 20750 bytes, 6 tensors)

bias f4 [32]
0	0xbe281331	-0.16413571
1	0xbdbbda0b	-0.09172448
2	0x3caa8feb	0.020820579
3	0x3dd08040	0.10180712
4	0x3d0402d7	0.03222927
5	0x3e04a325	0.1295286
6	0x3e5723a5	0.21009691
7	0x3d594668	0.05304566
8	0x3e0f7a6b	0.14011542
9	0xbe16b372	-0.1471689
10	0xbcfe01ca	-0.031006712
11	0x3b95b229	0.0045683575
12	0x388791e0	6.464473e-05
13	0x3bdc79bd	0.0067283795
14	0x3b247d45	0.002509908
15	0x3d8d9381	0.069129
16	0xbd946607	-0.07246023
17	0x3c42e027	0.011894262
18	0x3dae593a	0.08513112
19	0x3c344b9f	0.011004358
20	0x3d5b6b5b	0.05356918
21	0x3e82fac2	0.25581938
22	0x3d71dee4	0.059050456
23	0x3da682da	0.08130427
24	0x3d802a0b	0.06258019
25	0x3d8839eb	0.06651672
26	0x3e1fdfef	0.15612768
27	0xbe35a213	-0.17737608
28	0xbc7d9b22	-0.015478881
29	0x3e0419af	0.12900423
30	0x3c9fd204	0.019509323
31	0x3d796f7f	0.060897347

weight f4 [32, 22]
0	0x3ea13ce8	0.3149178
1	0xbd2ad0ab	-0.041702908
2	0xbed9f73a	-0.4257143
3	0xbded3784	-0.115828544
4	0xbea367c0	-0.31915092
5	0x3cb39905	0.021923551
6	0x3e9bb2e0	0.30409908
7	0xbe44f672	-0.19234636
8	0x3efc23e0	0.4924612
9	0x3de0fcf2	0.109857455
10	0xbf3bba67	-0.733313
11	0xbeafe146	-0.34351557
12	0xbe8837cb	-0.26605067
13	0x3d6f79d1	0.058465783
14	0x3db5dd54	0.088801056
15	0x3d1c1d08	0.038113624
16	0xbd6b3388	-0.05742219
17	0xbd5f9123	-0.054581773
18	0xbe274d0b	-0.16337983
19	0xbdbe4051	-0.09289611
20	0x3e7207f5	0.23635848
21	0x3efe8a9a	0.4971512
22	0xbe625056	-0.22100958
23	0xbda68a10	-0.08131802
24	0xbe8a58bd	-0.27020827
25	0x3e070328	0.13184798
26	0x3c9e3554	0.019312538
27	0x3d5507f3	0.052009534
28	0xbebd385a	-0.36957055
29	0x3eb25562	0.34830767
30	0xbe2945ba	-0.16530505
31	0xbe12a35e	-0.14320132
32	0xbf22461f	-0.63388246
33	0xbede3110	-0.43396807
34	0x3e8f2cda	0.27963907
35	0x3e138b53	0.14408617
36	0xbebf7cda	-0.37399942
37	0x3d7c2560	0.06155908
38	0x3e9c16c5	0.30486122
39	0xbe328b0f	-0.17435859
40	0xbd98f413	-0.074684285
41	0x3e126f2f	0.14300226
42	0x3e7b1366	0.24519119
43	0xbd2a2d6f	-0.041547235
44	0x3e180580	0.14845848
45	0x3e4cf47b	0.20015137
46	0xbb707bfe	-0.0036695
47	0x3e299208	0.16559613
48	0xbe79f2cb	-0.24409024
49	0xbec8e5e2	-0.39237887
50	0xbd991c59	-0.0747611
51	0xbce2e827	-0.02769859
52	0xbe81a81d	-0.25323573
53	0x3efff4d3	0.49991474
54	0xbdb09184	-0.08621505
55	0xbe2a6aee	-0.16642353
56	0x3e748aaa	0.23881021
57	0xbe315aaa	-0.17319742
58	0xbe2f8ba9	-0.1714312
59	0x3e829606	0.25505084
60	0x3e9c101b	0.30481037
61	0x3e2c612d	0.16833945
62	0xbc8a07a7	-0.016849352
63	0xbcc941f4	-0.024567582
64	0x3dca9559	0.09891767
65	0x3ee9c3fa	0.4565733
66	0x3e8ec1c3	0.27882203
67	0x3d32ffa0	0.043700814
68	0xbe912d4e	-0.28354877
69	0x3d056793	0.03256948
70	0x3f11aad4	0.5690129
71	0xbe9de699	-0.30839995
72	0x3c33172c	0.010930818
73	0xbdc33359	-0.09531278
74	0x3f5d5728	0.86461115
75	0x3e31b4f2	0.17354181
76	0x3e5833ff	0.21113585
77	0xbe9ff0b9	-0.31238344
78	0xbe791027	-0.24322568
79	0x3ef350ff	0.47522733
80	0x3ed5cf24	0.41759598
81	0x3cdb3e78	0.026763186
82	0x3e605323	0.21906714
83	0xbe7335c7	-0.23750983
84	0xbd9000e8	-0.07031423
85	0xbf043fd1	-0.51659876
86	0xbe398412	-0.18116787
87	0x3ec0d657	0.37663528
88	0xbe12815b	-0.14307158
89	0xbd4f6956	-0.050637566
90	0x3e323ef2	0.17406824
91	0xbd5e6aaa	-0.05430094
92	0xbd901277	-0.07034772
93	0x3ea3d947	0.32001707
94	0xbd65f417	-0.056140985
95	0x3dd4af64	0.103850156
96	0x3dd9b932	0.10631026
97	0x3ca19cae	0.019728031
98	0xbea91c5c	-0.3302945
99	0xbd356213	-0.044282984
100	0xbe658303	-0.22413258
101	0x3c457082	0.01205075
102	0xbe4ad081	-0.198061
103	0xbcbcfe25	-0.023070404
104	0x3dd8f9c4	0.10594514
105	0xbe662292	-0.22474125
106	0xbe114cb0	-0.1418941
107	0xbe2c2687	-0.16811572
108	0xbeb81fb8	-0.359617
109	0xbebcee56	-0.36900586
110	0x3d632976	0.055459462
111	0xbe98c12f	-0.29834887
112	0x3edc7bcb	0.43063197
113	0x3f18f979	0.59755665
114	0xbe7223dc	-0.23646492
115	0xbc9fafe5	-0.019493053
116	0x3e57e880	0.21084785
117	0xbe59e948	-0.21280396
118	0xbe59d9b7	-0.21274458
119	0x3eaab37d	0.33340064
120	0xbcf684e7	-0.03009267
121	0xbd07043b	-0.03296302
122	0xbeb917dd	-0.3615102
123	0x3e1e322b	0.15448825
124	0x3ea77937	0.32709667
125	0xbf2888b2	-0.6583358
126	0xbed561f6	-0.416763
127	0x3e2e69f6	0.17032608
128	0xbe46af5d	-0.19402833
129	0xbd93dbb9	-0.07219643
130	0x3e836cb4	0.2566887
131	0xbce34644	-0.027743466
132	0x3e546216	0.20740542
133	0x3e51f3c3	0.20503144
134	0xbf01a382	-0.5064012
135	0xbdf4ccb8	-0.119531095
136	0xbe4e6813	-0.20156889
137	0xbdff0987	-0.12452989
138	0xbe536111	-0.20642497
139	0x3ec66d1e	0.38755125
140	0x3ecbdd76	0.398174
141	0x3ea65119	0.32483748
142	0x3db44624	0.08802441
143	0xbe0781ab	-0.13233058
144	0x3e6d7907	0.231907
145	0x3e346317	0.17615925
146	0xbefbbf73	-0.49169502
147	0xbe12ca28	-0.14334929
148	0x3ea10cc9	0.31455067
149	0x3d3f6fd8	0.046737522
150	0xbeaf9b81	-0.34298328
151	0x3dfe8dfd	0.12429426
152	0xbeab54d2	-0.3346315
153	0x3f0163c1	0.5054284
154	0x3c3d2cd6	0.011546334
155	0x3e9d984b	0.30780253
156	0xbdc451f2	-0.09585942
157	0x3dd43503	0.10361674
158	0xbe911657	-0.28337356
159	0xbec25994	-0.37958968
160	0x3d9d7e33	0.07690086
161	0xbe939957	-0.28827927
162	0x3f273105	0.6530917
163	0x3e278e64	0.16362911
164	0x3c88230d	0.016618276
165	0x3e0596ff	0.13045882
166	0xbe77233c	-0.24134535
167	0x3e942f38	0.28942275
168	0x3ec635bc	0.3871287
169	0xbedccfa7	-0.43127176
170	0x3ddd5168	0.10806543
171	0xbed8f09b	-0.42371067
172	0x3ce4c87d	0.027927632
173	0xbebb0167	-0.36524507
174	0xbe6a0f60	-0.22857428
175	0x3e85d3f7	0.2613828
176	0xbe71fe70	-0.23632216
177	0x3d8b43b0	0.0680002
178	0xbd7e5faf	-0.06210297
179	0xbe6d7a3a	-0.23191157
180	0x3e57d00d	0.21075459
181	0x3d7f7ba8	0.062373787
182	0x3ec1ca8a	0.37849838
183	0x3f112b10	0.56706333
184	0xbee95607	-0.45573446
185	0xbedc6f13	-0.43053493
186	0x3e6ced34	0.23137361
187	0xbdec8047	-0.115479045
188	0x3e4a40da	0.19751301
189	0xbea2d764	-0.31804955
190	0x3e9c6794	0.30547774
191	0xbe3ee395	-0.18641503
192	0xbefe8ec2	-0.4971829
193	0xbf0a27b9	-0.5396686
194	0x3d1e3f21	0.038634423
195	0xbe479e74	-0.19494039
196	0x3d911658	0.0708434
197	0x3e59ed52	0.21281937
198	0xbe73281e	-0.23745772
199	0xbdb5ad66	-0.08870964
200	0xbd81e765	-0.06342963
201	0xbdca0fa1	-0.09866262
202	0x3e215bca	0.15757671
203	0x3e5b08d0	0.2139008
204	0xbe9967c5	-0.29961982
205	0xbe987a14	-0.29780638
206	0xbe88e3f8	-0.26736426
207	0x3e1909d8	0.14945161
208	0xbecbc64f	-0.39799735
209	0xbe4a43cf	-0.1975243
210	0x3ebcb52c	0.36856973
211	0xbe8547e0	-0.260314
212	0x3cc2d60e	0.02378371
213	0x3eb8de22	0.36106974
214	0xbe35eebc	-0.17766851
215	0xbe176e9f	-0.14788292
216	0xbe1976ae	-0.14986679
217	0x3e05246b	0.13002174
218	0xbd0b2696	-0.033972345
219	0x3f01957a	0.5061871
220	0xbe5281fb	-0.20557396
221	0x3e397058	0.18109262
222	0x3bc72970	0.006077938
223	0xbe52e38a	-0.20594612
224	0xbea0f2bd	-0.31435195
225	0x3ec30325	0.38088337
226	0xbe09bb3a	-0.13450328
227	0xbe1de71d	-0.15420194
228	0xbc9e286f	-0.01930639
229	0xbeafb193	-0.34315166
230	0xbd79d7d1	-0.060996834
231	0xbefe0e53	-0.49620304
232	0xbe3da64c	-0.18520468
233	0x3e2e2260	0.170053
234	0xbd3f99fb	-0.046777707
235	0xbec975af	-0.39347598
236	0x3de12883	0.10994055
237	0x3d95b5a9	0.073100396
238	0x3df9cca4	0.12197235
239	0xbe79226d	-0.24329539
240	0xbe30bc7b	-0.172594
241	0xbe674863	-0.22586207
242	0xbd9e012b	-0.077150665
243	0x3ea66916	0.3250205
244	0x3dda9cdc	0.1067445
245	0x3debbc19	0.11510486
246	0x3daecfb0	0.08535707
247	0x3ebbfb21	0.36715034
248	0x3e3c3c2d	0.1838233
249	0xbc330c7c	-0.0109282695
250	0xbecad9a2	-0.39619166
251	0x3e2eb40b	0.17060868
252	0xbe526ee2	-0.20550111
253	0xbf0a1ef6	-0.5395349
254	0xbe52e5bd	-0.2059545
255	0xbe92193d	-0.2853488

bias f4 [16]
0	0x3e486cf4	0.19572812
1	0xbbf5c3c4	-0.0075001437
2	0xbdc93f24	-0.09826496
3	0x3d9127b4	0.07087651
4	0x3cf4058e	0.029787805
5	0x3d5135bc	0.051076636
6	0x3dbedd82	0.09319593
7	0x3e3cf38a	0.18452278
8	0x3d954565	0.072886266
9	0x3dc01bd5	0.093803085
10	0x3e720e1e	0.23638198
11	0x3c89b4b7	0.016809804
12	0x3e101d8c	0.14073771
13	0xbb89a486	-0.004200521
14	0x3d8f4dfd	0.06997297
15	0xbc202fc7	-0.009777016

weight f4 [16, 32]
0	0xbe104432	-0.14088514
1	0xbeb41b91	-0.35177281
2	0xbdec05cb	-0.115245424
3	0xbe9c9de4	-0.3058921
4	0x3dbdd5c8	0.09269291
5	0xbea45648	-0.32097077
6	0xbee87725	-0.454034
7	0x3d793e43	0.060850393
8	0xbd69eca6	-0.05711045
9	0xbe98e1af	-0.29859683
10	0x3d419102	0.04725743
11	0xbea0a403	-0.3137513
12	0xbd4ae111	-0.049531046
13	0xbec77588	-0.38956857
14	0x3eba8518	0.36429667
15	0xbe809317	-0.2511222
16	0x3e5b7fdd	0.21435495
17	0x3e360dca	0.17778698
18	0x3d157980	0.036492825
19	0xbe936951	-0.28791288
20	0xbeb6e833	-0.3572403
21	0x3f09f0ac	0.5388286
22	0xbc4f8446	-0.012665814
23	0xbc4497e4	-0.011999104
24	0xbe95446b	-0.2915376
25	0xbe6d4ac3	-0.2317305
26	0x3ea48981	0.32136157
27	0xbd85f227	-0.065403275
28	0xbea02a95	-0.31282488
29	0x3e4cb7a2	0.19991925
30	0x3cb3ffb6	0.021972518
31	0x3e054d7b	0.13017838
32	0xbe9730e7	-0.29529497
33	0xbe0927d1	-0.13394095
34	0x3e597662	0.21236566
35	0x3e0a8fcb	0.13531415
36	0xbe82fe12	-0.25584465
37	0xbed56f26	-0.41686362
38	0xbeef0a9f	-0.4668779
39	0x3b685576	0.003545133
40	0xbeb5407a	-0.35400754
41	0x3e952490	0.29129457
42	0x3e64b0be	0.22333047
43	0x3e3384ed	0.17531176
44	0xbd8713a5	-0.06595544
45	0xbeaaa9c5	-0.3333265
46	0x3e4e3fe2	0.20141557
47	0xbe681c67	-0.22667085
48	0x3d8383d7	0.06421631
49	0xbbdd21a5	-0.0067483955
50	0xbf0b53f6	-0.5442499
51	0xbc9690b0	-0.01837954
52	0x3d4b243f	0.049595114
53	0xbe6d08ab	-0.23147838
54	0x3e3c6238	0.18396842
55	0xbe42e9ee	-0.1903455
56	0x3eb6157c	0.35563266
57	0x3d226a22	0.039651997
58	0x3e055e88	0.13024342
59	0xbe8e54ce	-0.27799076
60	0xbb37b1c6	-0.0028029545
61	0xbdfb8b93	-0.12282481
62	0x3e3680e5	0.17822607
63	0xbe623de6	-0.22093925
64	0x3eb1ac5c	0.34701812
65	0xbf147a47	-0.5799908
66	0x3e7fcb7a	0.24979964
67	0x3e4a59cd	0.19760819
68	0xbf3b3c67	-0.7313904
69	0xbdf2c821	-0.11854578
70	0x3eb4c832	0.35308987
71	0x3f074010	0.52832127
72	0xbd509663	-0.05092467
73	0xbce7cedd	-0.028296882
74	0xbf2531eb	-0.64529294
75	0xbe9a6520	-0.30155277
76	0x3de52787	0.1118918
77	0xbe53a3b4	-0.20667917
78	0xbd838255	-0.06421343
79	0xbea78046	-0.32715052
80	0x3dd77d61	0.10521961
81	0x3f19be78	0.6005626
82	0x3e2f0851	0.17093016
83	0xbe94699b	-0.2898682
84	0xbe7c282b	-0.24624698
85	0x3e045ebf	0.12926768
86	0x3dd2d7b2	0.10295047
87	0x3ce45092	0.02787045
88	0xbeae3e88	-0.34032083
89	0xbe334c69	-0.17509617
90	0xbd43d69f	-0.0478121
91	0xbf107c91	-0.56440073
92	0x3da98810	0.08277905
93	0xbf020f09	-0.5080419
94	0x3e39757a	0.1811122
95	0x3e1cbfaa	0.15307489
96	0xbc3672de	-0.011135785
97	0xbeaab7da	-0.33343393
98	0xbd697625	-0.056997437
99	0x3d807007	0.062713675
100	0x3d4b1d46	0.049588464
101	0x3ecc4486	0.3989603
102	0x3d44409b	0.047913175
103	0x3c1658a6	0.009176409
104	0xbec5b1fb	-0.3861235
105	0xbd6f821a	-0.058473684
106	0x3e12f731	0.14352109
107	0x3e1e45a1	0.15456249
108	0xbeb23302	-0.3480454
109	0x3d5adb04	0.053431526
110	0x3cbc4ead	0.022986734
111	0xbe9a7b33	-0.3017212
112	0x3eb16be2	0.3465262
113	0x3cf0a5ae	0.029375877
114	0xbda46895	-0.0802776
115	0xbda90749	-0.08253343
116	0xbe67f491	-0.22651888
117	0x3e898f81	0.26867297
118	0xbc544fbd	-0.012958464
119	0xbf138e54	-0.5763905
120	0x3e9a1161	0.30091384
121	0x3df3f5ca	0.11912115
122	0x3d82e658	0.06391591
123	0xbd9b2275	-0.075749315
124	0xbe53fcbc	-0.2070188
125	0xbdc0a747	-0.094069056
126	0xbe3e1ffc	-0.18566889
127	0x3ded3fe5	0.115844525
128	0x3dafc371	0.08582199
129	0x3e80ee0b	0.25181612
130	0x3dfb82a2	0.122807756
131	0xbe1d9053	-0.15387087
132	0x3e2ec0f2	0.1706579
133	0xbf063d43	-0.5243723
134	0x3df3be32	0.11901511
135	0x3e00a64e	0.1256344
136	0xbed25785	-0.41082397
137	0xbe3f4998	-0.18680418
138	0xbecbbe4c	-0.39793622
139	0xbe1260ec	-0.14294785
140	0x3cec154f	0.028818754
141	0xbea85805	-0.32879654
142	0x3dad02a8	0.08447772
143	0x3e3a12de	0.1817126
144	0xbe4706b4	-0.19436151
145	0xbe39a9a2	-0.18131116
146	0x3e951ec6	0.2912504
147	0x3cbb1d8e	0.022841241
148	0x3d8c13fb	0.068397485
149	0xbe4d66ea	-0.2005879
150	0xbebb0411	-0.3652654
151	0xbe5234f0	-0.20528007
152	0xbeca92a6	-0.3956501
153	0x3e944656	0.28959912
154	0x3e530f89	0.20611395
155	0x3e133dde	0.14379069
156	0x3eeb6299	0.45973662
157	0x3e968507	0.29398367
158	0xbe55492f	-0.20828699
159	0xbefe4919	-0.49665144
160	0x3e992403	0.29910287
161	0xbe948a35	-0.29011694
162	0x3e09f65e	0.13472888
163	0xbd05ddfe	-0.03268241
164	0x3ea03633	0.3129135
165	0xbedcdace	-0.43135685
166	0xbeef59fc	-0.4674834
167	0x3d9f1090	0.07766831
168	0x3e5a4cc3	0.21318345
169	0x3cfb0431	0.030641647
170	0x3e800e5a	0.2501095
171	0x3ee75ee7	0.45189592
172	0x3e36d194	0.17853385
173	0x3e56426a	0.20923772
174	0x3da01bae	0.078177795
175	0x3e39fcd3	0.18162851
176	0x3ea72d24	0.32651627
177	0xbec69bb0	-0.38790655
178	0xbf2149c8	-0.63003206
179	0xbe805446	-0.25064296
180	0xbc3d0041	-0.011535705
181	0x3e8ac866	0.27106017
182	0x3dba2da2	0.09090735
183	0xbdb92460	-0.09040141
184	0x3e8cb9a8	0.27485394
185	0xbeb20725	-0.34771076
186	0x3e20b281	0.15693094
187	0xbe7e5add	-0.24839349
188	0x3ed5abf5	0.41732755
189	0xbd99f2f3	-0.07517042
190	0x3cab333c	0.020898454
191	0xbeb1ebc3	-0.34750184
192	0xbdac7378	-0.084204614
193	0x3e2cd6db	0.16878836
194	0xbc631723	-0.013860497
195	0xbebb7eeb	-0.36620268
196	0xbd45b831	-0.04827136
197	0xbd599c94	-0.05312784
198	0x3e48d4a0	0.1961236
199	0xbeff7cc0	-0.49899864
200	0x3ea85c62	0.32882982
201	0xbe911720	-0.28337955
202	0xbeac786f	-0.33685634
203	0x3ed0d69d	0.40788737
204	0xbe533041	-0.20623876
205	0xbe98b293	-0.2982374
206	0xbe84325c	-0.2581967
207	0x3e942039	0.28930834
208	0x3d450ecb	0.04810981
209	0xbe4440a6	-0.19165286
210	0xbebfbe81	-0.3745003
211	0x3e6c4607	0.23073588
212	0xbf039aa7	-0.51407856
213	0x3e8f1b0e	0.2795033
214	0x3e87b85c	0.26507843
215	0x3d8dfb63	0.06932714
216	0x3ebb52c1	0.36586574
217	0xbeafbfe9	-0.34326103
218	0xbee8e503	-0.45487222
219	0xbd43f6fb	-0.04784296
220	0x3d3913ee	0.045185022
221	0xbb65ceea	-0.0035065957
222	0xbd8aa73d	-0.067701794
223	0xbdc3a012	-0.09552015
224	0xbdc72c0a	-0.09725197
225	0x3d897ed5	0.067136444
226	0xbd81ac0e	-0.06331645
227	0xbf0372bd	-0.5134695
228	0x3e90b66f	0.28264186
229	0x3dd84edb	0.105619155
230	0x3e1060cf	0.1409943
231	0xbf0090fa	-0.50221217
232	0xbcb0bf88	-0.021575704
233	0xbe912bee	-0.28353828
234	0xbd0cdedb	-0.03439222
235	0xbee2af16	-0.44274205
236	0xbbb6991c	-0.0055724513
237	0xbdf7bfff	-0.12097167
238	0x3ece1e70	0.40257597
239	0xbede33b4	-0.4339882
240	0xbed293f6	-0.4112851
241	0xbef2a16e	-0.47388786
242	0xbe89f7c4	-0.26946843
243	0xbecd72a4	-0.40126526
244	0xbccfd40e	-0.02536967
245	0xbd60e5f3	-0.054906797
246	0xbe357622	-0.17720845
247	0x3ee71627	0.45134088
248	0xbe46b171	-0.19403626
249	0x3e74d99c	0.23911136
250	0x3e89a10d	0.26880684
251	0xbe815f58	-0.25268054
252	0x3ecc9cb5	0.39963308
253	0xb95235b0	-0.00020047161
254	0x3e30e4c5	0.17274769
255	0x3eb39ba3	0.3507968

bias f4 [8]
0	0xbd454581	-0.048161987
1	0xbbc3715b	-0.0059644408
2	0xbc726e30	-0.014796779
3	0x3d591330	0.052996814
4	0xbca7bc58	-0.020475551
5	0xbe16eb53	-0.14738207
6	0x3d84bec6	0.064817
7	0x3dbf6a30	0.093464255

weight f4 [8, 16]
0	0xbed8f94a	-0.42377692
1	0x3e527fa6	0.20556507
2	0x3ef0335a	0.46914178
3	0x3dc6338b	0.096778
4	0x3d1ea08c	0.03872733
5	0x3d9f212d	0.0777
6	0x3eea4fba	0.45763952
7	0xbe998081	-0.29980853
8	0x3e108009	0.14111342
9	0xbf04d5c6	-0.5188869
10	0xbde64e6c	-0.112454265
11	0x3ed4c0b2	0.41553265
12	0xbdaff3cf	-0.08591425
13	0x3eae07bd	0.3399028
14	0x3ea2e0eb	0.31812224
15	0xbe316200	-0.1732254
16	0xbedb5503	-0.42838296
17	0x3f0fce36	0.5617403
18	0xbe9c80ea	-0.30567104
19	0x3e193dab	0.1496493
20	0x3ea5610d	0.32300606
21	0x3e21d4fb	0.15803902
22	0x3eab2eb1	0.3343406
23	0xbee958fa	-0.45575696
24	0xbeb8190e	-0.35956615
25	0xbeb7ebb7	-0.35922024
26	0x3d26f950	0.040765107
27	0xbdbb0f57	-0.09133785
28	0x3e7e8dc9	0.24858774
29	0x3e69a3f1	0.22816445
30	0x3e7c63a1	0.2464738
31	0x3e020a9f	0.12699364
32	0xbd1e2d72	-0.03861756
33	0x3e831136	0.25599068
34	0x3ec0220f	0.37525985
35	0xbdece618	-0.115673244
36	0xbefc0571	-0.492229
37	0x3f09a50e	0.5376748
38	0xbe80a1f9	-0.25123575
39	0xbeba4fa1	-0.36388877
40	0x3eb3d744	0.35125172
41	0x3e4a23ee	0.19740269
42	0xbebc6750	-0.3679757
43	0xbe2a3df7	-0.166252
44	0xbe7c29a5	-0.24625261
45	0xbe8df41b	-0.277253
46	0xbf025f3a	-0.50926554
47	0x3e9e9713	0.30974635
48	0xbf2e7cdc	-0.6815927
49	0xbe9d26ab	-0.30693564
50	0xbeaaba60	-0.33345318
51	0x3ed6761e	0.4188699
52	0x3e4a039f	0.19727944
53	0xbee415d0	-0.44547892
54	0xbe8a83e7	-0.27053759
55	0x3dcd99e4	0.10039118
56	0x3ed2e92e	0.41193527
57	0xbdce910e	-0.10086261
58	0xbf1d7955	-0.61513263
59	0xbec0a237	-0.3762376
60	0x3eb4823b	0.35255608
61	0x3e86c6df	0.26323602
62	0xbec71a42	-0.3888722
63	0x3e8c67ec	0.27423036
64	0xbefc178e	-0.4923672
65	0xbec6137f	-0.3868675
66	0x3ed50778	0.4160726
67	0x3eb57982	0.35444266
68	0xbdbd6523	-0.09247806
69	0xbe59fd98	-0.21288145
70	0x3ed9bc9a	0.42526704
71	0xbea62651	-0.32451108
72	0xbf0192da	-0.506147
73	0x3e9e987d	0.30975714
74	0x3dd495c7	0.1038013
75	0x3edce1d3	0.4314104
76	0x3ddae76d	0.10688672
77	0x3e6ce7b2	0.2313526
78	0xbdfa5984	-0.12224105
79	0xbe686048	-0.22692978
80	0xbea89e7c	-0.32933414
81	0x3ee6726b	0.4500917
82	0x3e11969e	0.14217612
83	0x3df291b4	0.11844197
84	0x3f0c0c41	0.547062
85	0x3d8726a5	0.06599168
86	0xbccbe91f	-0.024891434
87	0x3ec436b7	0.38322994
88	0xbf077176	-0.529075
89	0xbf145968	-0.57948923
90	0x3ec1932e	0.37807602
91	0x3ecaf075	0.3963658
92	0x3f0658ef	0.5247945
93	0x3edd6859	0.43243673
94	0xbf0757b3	-0.52868193
95	0x3e51f35d	0.20502992
96	0xbde0b19c	-0.10971376
97	0x3f0f6625	0.56015235
98	0xbeb29301	-0.3487778
99	0x3f1d4a34	0.6144135
100	0x3e8b1622	0.27165323
101	0xbe3ac4ae	-0.1823909
102	0xbf269a6b	-0.65079373
103	0xbf0b0ee5	-0.543196
104	0x3d82b41a	0.06382008
105	0xbe95b2e5	-0.29238048
106	0x3e85a5b9	0.26103
107	0x3e816cdf	0.25278375
108	0xbec7559d	-0.38932505
109	0x3ee915e8	0.45524526
110	0x3e26c902	0.16287616
111	0x3d966db3	0.07345142
112	0x3da708f8	0.081560075
113	0x3db00eb5	0.08596555
114	0x3e52b655	0.20577367
115	0xbd61ddce	-0.05514317
116	0x3df9c9e6	0.12196712
117	0xbec7230d	-0.3889393
118	0xbf0c4fb1	-0.548091
119	0x3ee3df89	0.4450648
120	0xbf171b9f	-0.5902652
121	0xbcd9334b	-0.026513716
122	0xbf7e1cf0	-0.99262905
123	0xbeda0712	-0.4258352
124	0x3de89fc5	0.113585986
125	0xbca4535c	-0.02005928
126	0x3e88d520	0.267251
127	0x3efea0d4	0.49732077
