Model_deployment/models/model_complete2.pth (torch, 55310 bytes, 6 tensors)

bias f4 [128]
-0.19435711 -0.12461367 -0.046186913 -0.13843527 -0.16026841 -0.13980499 -0.17866403 -0.10208593
-0.10156611 -0.0053419312 -0.1585455 -0.12807891 0.28528655 -0.101985656 -0.032396384 -0.05496911
-0.06217172 0.13426562 -0.047892675 -0.100026585 -0.067505784 0.080357075 -0.0077247564 -0.16333629
0.41652578 -0.07019677 0.008858108 -0.08472218 0.13719198 -0.07070223 -0.17758942 -0.06213741
-0.0653795 -0.08039298 0.21744889 -0.089738674 -0.12567912 -0.048347533 -0.19310306 -0.18584089
-0.09966555 -0.10925831 -0.1072416 -0.08704835 -0.037697792 -0.103869095 -0.12364208 0.5017978
-0.07511332 -0.12969112 -0.13035168 -0.11154821 0.07869817 -0.05670369 -0.070805825 -0.08169116
-0.07796727 -0.08852573 -0.07954276 0.0037125302 0.49346206 0.07685557 -0.09756292 0.025832478
0.16898204 -0.23778933 0.4584018 0.28122404 -0.115771316 -0.048904277 -0.048500687 0.10617797
-0.104273796 -0.0002736873 -0.08012491 0.06612077 -0.10637611 -0.073107794 -0.0785335 -0.101180114
-0.16480017 -0.108975954 -0.1318361 -0.116460875 0.2670114 -0.13676524 -0.03418163 -0.071737796
-0.07096271 -0.120301515 -0.09522288 0.18665585 -0.111716844 -0.100581326 -0.07796818 -0.057153434
-0.03734312 -0.064728275 -0.14867285 -0.0077061458 -0.16920021 -0.15214022 0.31551564 -0.08314803
-0.027233204 -0.18336028 -0.13487612 -0.081309825 -0.1475956 -0.06423449 -0.05822949 -0.056641653
-0.04726491 -0.082694754 -0.08578153 -0.057547644 -0.07796576 -0.21481758 -0.0069589214 -0.12794524
-0.038805738 0.010188579 0.004682488 -0.03887306 -0.08646209 0.3172268 -0.09362703 -0.06350595
00000000: 8d05 47be 7435 ffbd 7d2e 3dbd fac1 0dbe
00000010: 671d 24be 0a29 0fbe b4f3 36be 6e12 d1bd
00000020: e501 d0bd 5e0b afbb c059 22be 1e27 03be
00000030: 1411 923e dbdd d0bd 12b2 04bd 4a27 61bd
00000040: c6a7 7ebd ed7c 093e 1c2b 44bd bdda ccbd
00000050: 7940 8abd 4092 a43d f41f fdbb a141 27be
00000060: de42 d53e 53c3 8fbd 9921 113c d382 adbd
00000070: 0e7c 0c3e 55cc 90bd 00da 35be cc83 7ebd
00000080: b0e5 85bd 13a5 a4bd ecaa 5e3e e9c8 b7bd
00000090: 07b2 00be 1008 46bd cfbc 45be 134d 3ebe
000000a0: 741d ccbd d2c2 dfbd 7ca1 dbbd 6846 b2bd
000000b0: 0069 1abd 52b9 d4bd 0f38 fdbd d275 003f
000000c0: 03d5 99bd c0cd 04be e97a 05be 6373 e4bd
000000d0: 822c a13d 2142 68bd a502 91bd b24d a7bd
000000e0: 4ead 9fbd fa4c b5bd 51e7 a2bd ec4d 733b
000000f0: 0fa7 fc3e 7466 9d3d 11cf c7bd a29e d33c
00000100: a109 2d3e 0c7f 73be a4b3 ea3e 99fc 8f3e
00000110: 8319 edbd da4f 48bd a8a8 46bd d673 d93d
00000120: 808d d5bd b07d 8fb9 8718 a4bd 546a 873d
00000130: b8db d9bd 8ab9 95bd 2cd6 a0bd 8537 cfbd
00000140: 60c1 28be c92e dfbd 0b00 07be 0a83 eebd
00000150: b8b5 883e 300c 0cbe 0902 0cbd 44eb 92bd
00000160: e654 91bd a460 f6bd 3704 c3bd b622 3f3e
00000170: cdcb e4bd 95fd cdbd c8ad 9fbd b819 6abd
00000180: 19f5 18bd 4290 84bd b23d 18be d683 fcbb
00000190: d242 2dbe a5ca 1bbe 448b a13e 8449 aabd
000001a0: 2b18 dfbc ccc2 3bbe f71c 0abe c485 a6bd
000001b0: 4d23 17be 5f8d 83bd 0c82 6ebd 1401 68bd
000001c0: da98 41bd de5b a9bd 3aae afbd 14b7 6bbd
000001d0: 83ac 9fbd 24f9 5bbe aa07 e4bb 1404 03be
000001e0: c4f2 1ebd ffed 263c 8e6f 993b 5c39 1fbd
000001f0: 0913 b1bd 8d6b a23e 87bf bfbd 680f 82bd

weight f4 [128, 22]
-0.56514525 -0.44617382 0.28399414 0.2537428 -0.12138069 -0.20584399 0.7299123 -0.43914735
0.00393149 0.013837768 0.23854321 0.25933155 0.32214743 0.5101634 0.7495846 -0.08467924
-0.13855432 -0.3822518 -0.51938933 -0.14475596 0.45278984 -0.10481871 0.003522554 -0.31560504
0.1388699 0.14862327 -0.0066664186 -0.39367998 -0.17989841 0.045112524 -0.2445484 -0.0515109
-0.13188148 -0.0913813 -0.059102908 -0.011655904 0.056563396 -0.019157585 0.067633666 0.16628264
-0.055176973 -0.111123316 -0.18477978 -0.005635565 -0.2445393 -0.49509025 0.3055236 0.19981124
-0.13449806 0.13136151 0.48310164 -0.5238098 0.017173985 -0.17930631 -0.054967962 -0.09911173
0.24158718 -0.3723277 0.22629878 0.1179508 0.058403924 -0.24230786 0.20759036 -0.33574304
-0.03247767 0.50696456 -0.6231876 0.02287848 -0.14391701 0.704265 0.007230937 -0.22970138
-0.042578198 -0.38454384 -0.15570611 0.22372298 0.29028213 -0.2986785 0.6104069 -0.6022276
-0.46463203 -0.34837568 0.28227538 -0.58544064 0.4975029 -0.19861194 0.4797061 0.8299244
-0.04581991 0.66623205 -0.28171402 0.5157475 0.07627137 -0.046312224 -0.5479072 -0.12143394
0.060935944 0.59558326 0.19325754 -0.05442637 -0.5653388 0.060670827 -0.2580022 -0.5543033
-0.26019192 0.30332944 0.42404243 0.33167365 -0.18087123 0.10712006 0.11629335 -0.37717336
-0.11265024 -0.45475882 0.07726104 -0.2377564 -0.0362982 -0.15164219 0.2612995 0.1278157
-0.07290382 0.07615052 -0.08775915 0.14732273 -0.03302849 -0.39306498 -0.2911927 0.01409753
-0.7091184 0.16393879 -0.70408237 -0.546336 0.20426181 0.4117574 -0.14756389 -0.24142578
-0.119055696 -0.10911955 -0.6733669 -0.087454624 -0.055431858 0.4581183 -0.088917814 0.35011607
-0.36411875 -0.32692292 -0.2418484 -0.004245529 0.05180475 0.22748466 -0.26376566 0.37928036
-0.002970336 -0.07229628 0.18364795 0.6078943 -0.26387572 0.009247642 -0.13532072 0.048767943
-0.49087322 -0.15398188 0.12361691 0.0021038894 -0.6392016 0.04833781 -0.13045362 -0.03714385
-0.44181058 -0.16432531 -0.2387906 0.36765707 0.11788889 0.15222478 0.05017694 -0.09691631
-0.035580758 -0.24491523 -0.61911815 -0.10275197 -0.06095175 -0.11992045 0.10821236 0.05973477
0.80955315 -0.65413314 0.58593065 0.045870677 -0.2515417 0.1472901 -0.019130183 0.06255189
0.38426626 -0.10467163 -0.58784026 -0.08758274 -0.4118726 -0.38914034 -0.05722603 0.5951267
-0.20464756 0.14401822 0.10747601 0.027024167 -0.64417857 0.17202887 0.042589407 0.17801486
0.28883955 0.33957565 0.03437959 -0.5052698 0.40539876 -0.71416306 -0.02983559 -0.3994514
-0.35312152 0.0143244825 0.006028058 0.62815046 -0.010396411 -0.12572862 -0.39602116 0.37473062
0.118657485 -0.020066295 0.10404464 0.12535618 -0.03224769 0.09078377 0.19261162 0.017747806
0.03849777 0.120130256 -0.11481968 0.41857946 0.11783218 0.90518904 -0.36818102 -0.15368041
0.46943924 0.596834 -0.17390804 -0.07820053 -0.5654161 -0.101489335 0.31945473 -0.29308572
-0.119824454 0.042631466 0.02134066 0.26436403 0.041103285 -0.2079522 0.10446908 -0.6519805
00000000: 5cad 10bf e570 e4be ae67 913e 94ea 813e
00000010: 7096 f8bd c4c8 52be 88db 3a3f ecd7 e0be
00000020: bad3 803b ceb7 623c ac44 743e 1bc7 843e
00000030: 82f0 a43e 129a 023f c7e4 3f3f 4f6c adbd
00000040: 2fe1 0dbe 82b6 c3be b3f6 04bf e83a 14be
00000050: 12d4 e73e 31ab d6bd a6da 663b fc96 a1be
00000060: e933 0e3e b330 183e f971 dabb 6c90 c9be
00000070: 4a37 38be e9c7 383d e56a 7abe 18fd 52bd
00000080: f00b 07be 1e26 bbbd e415 72bd 68f8 3ebc
00000090: 05af 673d 5ef0 9cbc 8583 8a3d ff45 2a3e
000000a0: 4001 62bd 9f94 e3bd e936 3dbe 8caa b8bb
000000b0: 8368 7abe 787c fdbe 976d 9c3e 519b 4c3e
000000c0: dcb9 09be a283 063e 1959 f73e 6618 06bf
000000d0: 75b0 8c3c 139c 37be 1626 61bd 17fb cabd
000000e0: a162 773e bca1 bebe deba 673e 3090 f13d
000000f0: f438 6f3d 8d1f 78be 9192 543e 83e6 abbe
00000100: 4e07 05bd 6ec8 013f 3989 1fbf a66b bb3c
00000110: fb5e 13be b64a 343f 7ff1 ec3b d736 6bbe
00000120: 7a66 2ebd eee2 c4be 6c71 1fbe a317 653e
00000130: dc9f 943e 63ec 98be a043 1c3f 972b 1abf
00000140: 40e4 edbe 4c5e b2be 6686 903e 70df 15bf
00000150: b3b8 fe3e ee60 4bbe 0a9c f53e ed75 543f
00000160: a8ad 3bbd 2f8e 2a3f d23c 90be 0708 043f
00000170: 2a34 9c3d e3b1 3dbd a543 0cbf 5cb2 f8bd
00000180: f897 793d 2578 183f 4ee5 453e 2fee 5ebd
00000190: 0bba 10bf f981 783d dd18 84be d2e6 0dbf
000001a0: e037 85be ff4d 9b3e 171c d93e 21d1 a93e
000001b0: 4f36 39be c361 db3d 352b ee3d de1c c1be
000001c0: 2bb5 e6bd 26d6 e8be 093b 9e3d 6a76 73be
000001d0: 6cad 14bd 1748 1bbe 0cc9 853e 1ee2 023e
000001e0: 994e 95bd cef4 9b3d 12bb b3bd c5db 163e
000001f0: e248 07bd d03f c9be 3617 95be 54f9 663c
00000200: c988 35bf 92df 273e be3e 34bf addc 0bbf
00000210: 022a 513e ded1 d23e fd1a 17be 5238 77be
00000220: 79d3 f3bd 127a dfbd c661 2cbf 691b b3bd
00000230: 840c 63bd 7b8e ea3e 8b1a b6bd 6a42 b33e
00000240: c66d babe 7162 a7be 1ba7 77be 141e 8bbb
00000250: 3831 543d bdf1 683e 4b0c 87be 0931 c23e
00000260: f8a9 42bb 1210 94bd 350e 3c3e f69e 1b3f
00000270: b81a 87be 6c83 173c 8491 0abe e5c0 473d
00000280: bc53 fbbe 6dad 1dbe dd2a fd3d 68e1 093b
00000290: b7a2 23bf defd 453d a295 05be 2624 18bd
000002a0: ff34 e2be e544 28be 8685 74be 8c3d bc3e
000002b0: bb6f f13d d0e0 1b3e 5686 4d3d 0f7c c6bd
000002c0: 21bd 11bd 0fcb 7abe 877e 1ebf a06f d2bd
000002d0: 8ba8 79bd da98 f5bd 719e dd3d 72ac 743d
000002e0: e03e 4f3f 4575 27bf 8dff 153f e4e2 3b3d
000002f0: 13ca 80be 37d3 163e e7b6 9cbc 351b 803d
00000300: 8cbe c43e 145e d6bd b37c 16bf 945e b3bd
00000310: f7e0 d2be 673d c7be d765 6abd 395a 183f
00000320: 218f 51be 8379 133e 621c dc3d c961 dd3c
00000330: e3e8 24bf 5628 303e 3b72 2e3d 8749 363e
00000340: c7e2 933e dcdc ad3e 9dd1 0c3d 5d59 01bf
00000350: 6d90 cf3e 64d3 36bf c469 f4bc e584 ccbe
00000360: 58cc b4be 3cb1 6a3c 0487 c53b 78ce 203f
00000370: b555 2abc 01bf 00be 49c3 cabe b1dc bf3e
00000380: b202 f33d 1262 a4bc 5b15 d53d 5f5d 003e
00000390: 2716 04bd d7ec b93d fb3b 453e d963 913c
000003a0: d6af 1d3d da06 f63d 9526 ebbd 0c50 d63e
000003b0: ff51 f13d 78ba 673f 3982 bcbe 665e 1dbe
000003c0: 575a f03e 1dca 183f f314 32be 9927 a0bd
000003d0: 1cbf 10bf a4d9 cfbd 928f a33e 550f 96be
000003e0: 8666 f5bd 559e 2e3d 9cd2 ae3c b95a 873e
000003f0: eb5b 283d 6cf1 54be e3f3 d53d 32e8 26bf

bias f4 [64]
-0.053174887 0.08422505 -0.037367824 -0.029412584 -0.059934657 -0.043840267 -0.05976967 -0.060055032
-0.07269694 -0.06005501 -0.046115234 -0.0577341 -0.03798145 -0.04686148 -0.057924036 -0.093999796
-0.064986624 -0.0414622 -0.060054954 -0.054711755 -0.035144024 -0.05560738 -0.052550275 0.026617946
0.02649578 -0.031848945 -0.1124285 0.010950935 0.2162723 -0.060055017 -0.098264754 -0.06005484
-0.048983265 0.061019994 -0.060055036 -0.0372469 0.006490672 -0.058562394 -0.06005352 -0.06003704
-0.060053743 -0.060044788 -0.05064194 0.03937841 -0.047878053 -0.05981786 -0.06001674 0.031536125
-0.022193383 -0.022398952 -0.06031393 -0.062022462 -0.06978162 -0.05999394 -0.11418967 -0.084708884
-0.06537258 -0.060054976 -0.29295367 0.032980584 -0.053089216 -0.04329404 -0.08245524 -0.073193535
00000000: e9cd 59bd 2f7e ac3d 010f 19bd a9f2 f0bc
00000010: 0b7e 75bd da91 33bd 0bd1 74bd 44fc 75bd
00000020: 22e2 94bd 3efc 75bd 54e3 3cbd 977a 6cbd
00000030: 7092 1bbd d3f1 3fbd c141 6dbd f782 c0bd
00000040: b517 85bd 45d4 29bd 2ffc 75bd 6f19 60bd
00000050: 2ef3 0fbd 90c4 63bd f53e 57bd e10d da3c
00000060: ae0d d93c 0a74 02bd ea40 e6bd 8d6b 333c
00000070: 7c76 5d3e 40fc 75bd 083f c9bd 10fc 75bd
00000080: ada2 48bd 1af0 793d 45fc 75bd 3590 18bd
00000090: b4af d43b 1fdf 6fbd aefa 75bd 66e9 75bd
000000a0: eafa 75bd 86f1 75bd ec6d 4fbd 414b 213d
000000b0: c71b 44bd 9303 75bd 1dd4 75bd 062c 013d
000000c0: e6ce b5bc 027e b7bc bd0b 77bd 440b 7ebd
000000d0: aae9 8ebd 35bc 75bd 46dc e9bd da7b adbd
000000e0: 0fe2 85bd 35fc 75bd 06fe 95be a616 073d
000000f0: 1474 59bd 1755 31bd 4bde a8bd 7ee6 95bd

weight f4 [64, 128]
0.07849635 -0.16812225 -0.0869615 0.03792674 -0.030293051 0.011292886 0.03339313 -0.06995831
-0.050047666 0.08137079 0.063202634 0.06728505 -0.039739307 -0.21664646 0.11037917 0.052236278
-0.21469818 0.053343255 0.112536184 0.005424584 0.122744225 0.037349936 -0.04653065 0.11601769
0.043903623 -0.08535572 0.03385867 -0.01638151 -0.15212433 -0.02457843 0.010951768 -0.16365089
-0.19164312 -0.042359304 -0.058333922 -0.17246047 0.005758823 -0.17218317 0.030136216 -0.17649505
-0.18370165 -0.08187743 -0.060963605 0.12455273 -0.17439939 -0.032593213 -0.22261035 0.025148848
0.12211019 0.06595605 -0.09952355 -0.2055821 0.1136012 -0.23542464 -0.17534645 0.046484847
0.10496728 0.017868245 -0.1285825 -0.08050703 -0.10494899 -0.18677728 -0.07781338 -0.2097569
-0.06290357 0.05358862 -0.035740606 0.09504188 0.008711913 -0.104295135 0.09075504 -0.17384964
0.073072195 -0.039453782 -0.11585392 -0.07277749 -0.090932064 0.03689955 0.057881042 -0.19924378
-0.14901999 -0.20205565 -0.0354782 -0.02660658 -0.16269232 -0.1473265 0.08545406 -0.09663515
0.069313176 -0.14896385 -0.03067931 -0.05171196 -0.07545577 -0.18103567 0.1125992 0.09240232
0.088396594 -0.14887065 0.084897734 -0.1755291 -0.04307182 -0.035499237 0.15967771 -0.038210303
-0.11958691 -0.18803658 -0.08759127 0.0016592947 0.07005425 -0.081618115 -0.036972415 -0.13831714
0.061344467 -0.11621481 0.036946196 -0.008359842 -0.10137797 -0.019661916 -0.13587663 -0.2134845
0.058301598 0.10963036 -0.14390229 -0.059506644 -0.11477454 -0.10091035 -0.076034725 -0.20220858
-1.1921927 -0.046904184 0.2769391 -0.8473271 -0.44451568 -0.115972295 -0.20240654 -0.56997323
-0.34703532 -0.49162582 0.25136828 0.52829045 0.48086923 0.00083373266 0.10669653 -0.15190391
0.009891048 0.2585782 -0.33710447 -0.6774948 -0.92042196 -0.5274439 -0.8891961 0.18171836
0.56337106 -0.036815766 -0.29663333 -0.075356044 0.5874325 0.012237811 -0.47295612 -0.38964516
0.13967581 -0.24667266 0.26149532 -0.027880054 -0.4245531 -0.3991499 -0.16224289 0.16864106
0.22309034 -0.08254425 -0.32439613 -0.2162579 -0.057673443 -0.2339681 0.057639744 0.8101088
0.15426898 0.008238111 0.22089744 0.019691527 0.13169321 -0.053367928 -0.47652683 -0.30261752
-0.04918906 0.16257842 -0.124691494 -0.13573064 0.3919286 -0.0667028 0.26070237 0.28624633
0.27369118 -0.4600699 0.44169745 0.15361547 -0.27212098 -0.19832274 -0.011793418 -0.10301005
0.09722802 -0.04400923 -0.31150916 -0.077826 -0.2035999 -0.0626355 -0.089299425 -0.12430188
-0.07636639 0.110025264 0.08018781 0.14064112 0.34306407 -0.07507703 -0.07466669 0.09943973
0.20276353 0.60861945 -0.09496971 0.32797563 0.055186402 -0.080903225 -0.15668735 -0.12377056
0.54434794 -0.2689767 -1.0265231 -0.2416141 0.11270508 -0.45578817 0.20631486 -0.96885335
-0.1586617 -0.09695639 0.15767294 0.16194221 -0.878045 -0.08447478 -0.3381437 -0.28765967
-0.031983674 0.12141448 -0.03776185 0.42354757 -0.075580135 -0.009472099 0.05075117 -0.055173922
-0.42409137 -0.4052701 0.2248763 0.047668915 -0.2880945 0.24942535 0.079343386 0.18042532
00000000: b2c2 a03d 3d28 2cbe df18 b2bd 1259 1b3d
00000010: 2229 f8bc cc05 393c 3cc7 083d 4d46 8fbd
00000020: c8fe 4cbd bba5 a63d 6270 813d bfcc 893d
00000030: afc5 22bd 92d8 5dbe 790e e23d b5f5 553d
00000040: d7d9 5bbe 757e 5a3d 5f79 e63d b5c0 b13b
00000050: 5361 fb3d 3ffc 183d ec96 3ebd af9a ed3d
00000060: 49d4 333d fbce aebd 64af 0a3d 8432 86bc
00000070: 7bc6 1bbe b458 c9bc 0b6f 333c 1994 27be
00000080: 183e 44be f380 2dbd 8def 6ebd 7a99 30be
00000090: 82b4 bc3b c950 30be 3ae0 f63c 1ebb 34be
000000a0: 491c 3cbe 5baf a7bd f9b4 79bd 8015 ff3d
000000b0: c195 32be 7680 05bd f8f3 63be f504 ce3c
000000c0: e814 fa3d f713 873d 01d3 cbbd 1d84 52be
000000d0: bfa7 e83d 2813 71be 058e 33be e566 3e3d
000000e0: 16f9 d63d 6d60 923c 22ab 03be dfe0 a4bd
000000f0: 7fef d6bd 8b42 3fbe 9f5c 9fbd 83ca 56be
00000100: 96d3 80bd be7f 5b3d be64 12bd 51a5 c23d
00000110: 69bc 0e3c b098 d5bd c7dd b93d a405 32be
00000120: e0a6 953d 4a9a 21bd d244 edbd 5d0c 95bd
00000130: 973a babd fc23 173d ac14 6d3d 9006 4cbe
00000140: b298 18be ade7 4ebe 9751 11bd 0bf6 d9bc
00000150: d198 26be c2dc 16be 8a02 af3d a6e8 c5bd
00000160: 11f4 8d3d fb89 18be 2d53 fbbc eccf 53bd
00000170: 8e88 9abd 6a61 39be 699a e63d 6d3d bd3d
00000180: 4609 b53d 8c71 18be ddde ad3d e6bd 33be
00000190: 146c 30bd a667 11bd 8e82 233e 6882 1cbd
000001a0: fbe9 f4bd a98c 40be 0d63 b3bd b17c d93a
000001b0: 9a78 8f3d 6627 a7bd 6370 17bd 02a3 0dbe
000001c0: 5644 7b3d 0802 eebd e554 173d b8f7 08bc
000001d0: 419f cfbd 0712 a1bc 3e23 0bbe ae9b 5abe
000001e0: a8cd 6e3d e285 e03d 1f5b 13be 3dbd 73bd
000001f0: ea0e ebbd 16aa cebd 18b8 9bbd c40f 4fbe
00000200: c599 98bf 9a1e 40bd f6ca 8d3e 6eea 58bf
00000210: 8f97 e3be e282 edbd a943 4fbe c4e9 11bf
00000220: 9dae b1be 61b6 fbbe 58b3 803e 0b3e 073f
00000230: 7e34 f63e da8e 5a3a b683 da3d b38c 1bbe
00000240: 100e 223c 5d64 843e f598 acbe 4d70 2dbf
00000250: c6a0 6bbf 9006 07bf 5ba2 63bf 6114 3a3e
00000260: 1639 103f 21cc 16bd 53e0 97be 4554 9abd
00000270: fa61 163f 1a81 483c 4e27 f2be 927f c7be
00000280: 2d07 0f3e c297 7cbe b7e2 853e b664 e4bc
00000290: 065f d9be 605d ccbe 0023 26be 3eb0 2c3e
000002a0: cb71 643e f60c a9bd 4017 a6be b672 5dbe
000002b0: fd3a 6cbd 5595 6fbe a717 6c3d 4a63 4f3f
000002c0: b0f8 1d3e 24f9 063c f032 623e 2050 a13c
000002d0: 96da 063e 5498 5abd 53fb f3be aff0 9abe
000002e0: 787a 49bd f57a 263e 415e ffbd f9fc 0abe
000002f0: deaa c83e 7a9b 88bd c87a 853e e18e 923e
00000300: 4021 8c3e 488e ebbe 2b26 e23e 604d 1d3e
00000310: 7153 8bbe 1e15 4bbe 2e39 41bc eff6 d2bd
00000320: 7c1f c73d 0643 34bd 217e 9fbe 3d63 9fbd
00000330: 7e7c 50be 0b47 80bd 9ee2 b6bd fc91 febd
00000340: fb65 9cbd ed54 e13d 8239 a43d 3a04 103e
00000350: 18a6 af3e fcc1 99bd d9ea 98bd 0fa7 cb3d
00000360: 3ea1 4f3e 7cce 1b3f 7b7f c2bd 6cec a73e
00000370: 230b 623d 97b0 a5bd a672 20be 6b7b fdbd
00000380: 635a 0b3f 50b7 89be 1c65 83bf b069 77be
00000390: ecd1 e63d 115d e9be 3444 533e c606 78bf
000003a0: 3678 22be 1291 c6bd 0475 213e 2ed4 253e
000003b0: 8fc7 60bf 1d01 adbd 2c21 adbe 2148 93be
000003c0: 5001 03bd 28a8 f83d 2bac 1abd 3adb d83e
000003d0: c2c9 9abd dd30 1bbc 75e0 4f3d 0dfe 61bd
000003e0: 8122 d9be 907f cfbe f945 663e 7b40 433d
000003f0: 1f81 93be 5c69 7f3e c97e a23d 6ac1 383e

bias f4 [8]
-0.19992003 0.14060679 -0.06684534 -0.110663734 -0.17026497 0.22747563 0.094534375 0.03134077
00000000: d6b7 4cbe 3afb 0f3e 36e6 88bd aba3 e2bd
00000010: f159 2ebe 5fef 683e 3d9b c13d 2e5f 003d

weight f4 [8, 64]
0.02519026 0.40177703 0.1368781 0.38949287 0.12484136 -0.13998987 0.2286451 0.043483544
-0.123453185 0.06835324 -0.0842621 -0.0644035 -0.070129395 -0.06505208 0.11073894 -0.07123551
0.2377527 -0.30581644 0.012195377 -0.20900278 0.06570732 0.0018616137 -0.038328063 0.38404125
-0.17469625 0.40634447 0.13462986 0.35942835 -0.3050845 0.15818873 0.11473315 -0.20742261
-0.13022462 0.49309602 0.1619296 0.073502526 -0.33201683 0.21382627 -0.3155108 0.0674022
0.17805466 0.06738076 0.12683775 -0.19481309 0.107930794 -0.20325449 0.10925043 0.14850523
0.17926319 -0.042407602 0.036126137 -0.17126708 0.012023862 -0.1311816 0.17429504 0.18651521
-0.13300674 0.14823505 -0.16109753 0.065817185 -0.20424715 0.045570537 -0.1611402 0.053950906
0.19363314 -0.34653872 0.11649086 -0.36797607 -0.027569272 0.0048812195 -0.18623911 0.19852582
-0.052839417 -0.0634574 0.109414496 -0.29728904 -0.25810018 0.07204524 -0.16681807 -0.3307435
0.18412307 -0.21537852 0.1699672 -0.079158016 -0.22413346 -0.3305905 0.30607203 -0.40643775
-0.26747447 0.08034045 0.09617986 0.22173826 0.52825665 0.016935261 -0.3185223 0.2098683
0.11733878 -0.081203066 -0.02634063 -0.24788584 0.034967087 0.15209788 0.14439328 -0.2606171
0.22113357 -0.18715902 0.11112722 0.30520245 0.15739892 0.020984462 0.01261326 0.3400188
-0.00043323642 0.05685728 0.11486006 0.12301854 -0.17194371 0.22766162 0.0059528966 -0.29715085
0.17472364 0.09031884 0.28707087 -0.42562547 0.37493354 -0.26228744 0.00082759355 0.07870055
-0.0064924457 0.054378234 -0.23679352 -0.4222573 -0.058762245 0.003162548 0.0657838 0.063811824
0.017530007 0.0100362655 -0.13663298 -0.23187831 -0.10226342 -0.17807665 0.13709304 0.02001269
0.06087844 -0.08938621 -0.029195588 -0.10033914 0.36959472 0.017580396 0.018515592 -0.21253759
-0.18190804 -0.37097725 -0.0354451 -0.23371391 0.18884563 0.07480624 -0.33228317 -0.051080856
0.10695045 -0.21477549 0.2133554 0.19852284 0.28266293 -0.09745171 -0.34020227 -0.005452985
-0.23063116 0.112510666 0.1623096 -0.2903889 -0.12974794 0.15228261 0.22656174 0.2750911
0.10821027 -0.6406546 0.19867924 0.3299908 -0.18834206 -0.2109114 -0.22415526 -0.1476048
0.07269122 -0.09028934 -0.184896 0.49971342 0.0032417304 -0.037149094 -0.08769878 -0.053025424
0.037935358 0.5969346 -0.033395104 -0.23728329 -0.25770658 -0.049326777 0.20728202 0.0056446427
-0.10674031 -0.1561126 -0.21527998 0.1592005 -0.15779562 0.06825901 0.18999895 0.08418396
-0.12436468 0.16570769 -0.02309889 0.09808852 0.024663268 -0.19362357 0.081620686 0.3310606
-0.053536236 -0.034391392 0.20010997 -0.13265267 -0.42935967 -0.00033381087 0.21551265 0.06656778
0.0131094325 0.20424777 0.21154067 -0.16029082 0.26361823 0.18414034 0.16422854 -0.11206018
0.16617455 -0.24928148 -0.20829006 -0.21871386 -0.20128837 0.09540697 -0.059060164 -0.22885485
0.09663164 -0.3338608 -0.1074397 -0.0112269465 0.2875126 0.038354073 -0.28134176 0.20110294
0.21800026 0.11687085 0.015681926 -0.014433445 0.30770993 0.12282129 -0.07842482 0.20090875
00000000: ce5b ce3c b8b5 cd3e c629 0c3e 9c6b c73e
00000010: d4ac ff3d 8159 0fbe f121 6a3e cd1b 323d
00000020: 06d5 fcbd c9fc 8b3d 9c91 acbd fbe5 83bd
00000030: 00a0 8fbd 063a 85bd 19cb e23d ece3 91bd
00000040: 7275 733e f993 9cbe 1ecf 473c d304 56be
00000050: 8f91 863d 6401 f43a e3fd 1cbd 0ea1 c43e
00000060: 93e3 32be 620c d03e 69dc 093e fe06 b83e
00000070: 0934 9cbe 3afc 213e 37f9 ea3d 9866 54be
00000080: 9a59 05be 1577 fc3e e0d0 253e 7e88 963d
00000090: 1cfe a9be 46f5 5a3e a28a a1be 2a0a 8a3d
000000a0: f653 363e edfe 893d c1e1 013e 157d 47be
000000b0: d20a dd3d f221 50be b0be df3d c111 183e
000000c0: c590 373e 98b3 2dbd 00f9 133d a360 2fbe
000000d0: bcff 443c 7854 06be 667a 323e d8fd 3e3e
000000e0: eb32 08be eeca 173e c0f6 24be 29cb 863d
000000f0: 2a26 51be 2ca8 3a3d f001 25be a0fb 5c3d
00000100: c447 463e 866d b1be c392 ee3d 5c67 bcbe
00000110: f4d8 e1bc a3f2 9f3b 77b5 3ebe 5a4a 4b3e
00000120: 256e 58bd f4f5 81bd b514 e03d 4536 98be
00000130: b525 84be 748c 933d 5bd2 2abe 3657 a9be
00000140: c28a 3c3e 308c 5cbe e20b 2e3e 991d a2bd
00000150: 3e83 65be 2843 a9be 79b5 9c3e 9c18 d0be
00000160: 6af2 88be 8989 a43d f2f9 c43d 5b0f 633e
00000170: d43b 073f d1bb 8a3c 5b15 a3be b7e7 563e
00000180: 504f f03d cb4d a6bd 4ec8 d7bc c9d5 7dbe
00000190: a639 0f3d 8cbf 1b3e d5db 133e 9b6f 85be
000001a0: d770 623e 9da6 3fbe ab96 e33d 7f43 9c3e
000001b0: 2f2d 213e 9be7 ab3c d9a7 4e3c f216 ae3e
000001c0: 0224 e3b9 2ee3 683d c03b eb3d 25f1 fb3d
000001d0: 0312 30be 2120 693e 8410 c33b 2824 98be
000001e0: c1ea 323e 16f9 b83d f4fa 923e 95eb d9be
000001f0: 4af7 bf3e 8a4a 86be ddf2 583a c12d a13d
00000200: 95be d4bb b6bb 5e3d 007a 72be 1c32 d8be
00000210: aeb0 70bd c042 4f3b a8b9 863d c6af 823d
00000220: 179b 8f3c 266f 243c 84e9 0bbe 8271 6dbe
00000230: 7c6f d1bd ba59 36be 1e62 0c3e a7f1 a33c
00000240: ac5b 793d 1e10 b7bd 962b efbc 9b7e cdbd
00000250: 853b bd3e c304 903c 03ae 973c 74a3 59be
00000260: 1a46 3abe bbf0 bdbe e22e 11bd b352 6fbe
00000270: c060 413e 0434 993d 0521 aabe 293a 51bd
00000280: d608 db3d 1bee 5bbe d779 5a3e 9249 4b3e
00000290: 32b9 903e c394 c7bd fe2e aebe f4ae b2bb
000002a0: 932a 6cbe fe6b e63d 7d34 263e dbad 94be
000002b0: a5dc 04be f9ef 1b3e cdff 673e bed8 8c3e
000002c0: 599d dd3d f101 24bf 9272 4b3e 8ef4 a83e
000002d0: bedc 40be 28f9 57be f588 65be b625 17be
000002e0: 22df 943d 9ee9 b8bd 6155 3dbe 70da ff3e
000002f0: 3673 543b a629 18bd 6b9b b3bd 3031 59bd
00000300: 1b62 1b3d b5d0 183f 4ec9 08bd 64fa 72be
00000310: 1ef2 83be e00a 4abd bd41 543e b2f6 b83b
00000320: aa9a dabd fbdb 1fbe 5b72 5cbe 7505 233e
00000330: 2d95 21be 61cb 8b3d 168f 423e a468 ac3d
00000340: e9b2 febd 47af 293e e239 bdbc a2e2 c83d
00000350: 9f0a ca3c 4245 46be bf28 a73d c680 a93e
00000360: d048 5bbd fddd 0cbd a1e9 4c3e 1ad6 07be
00000370: 08d5 dbbe 5603 afb9 59af 5c3e b054 883d
00000380: f2c8 563c 5426 513e 1e9e 583e 4723 24be
00000390: f8f8 863e 498f 3c3e 872b 283e cf7f e5bd
000003a0: a929 2a3e a543 7fbe fd49 55be 87f6 5fbe
000003b0: 8a1e 4ebe bb64 c33d 12e9 71bd ed58 6abe
000003c0: cfe6 c53d ceef aabe 5809 dcbd 3af1 37bc
000003d0: da34 933e 2919 1d3d 070c 90be eeed 4d3e
000003e0: 763b 5f3e fc59 ef3d 6277 803c 427a 6cbc
000003f0: 288c 9d3e ba89 fb3d 319d a0bd 06bb 4d3e
