Model_deployment/models/model_complete_nuevo_modelo.pth (torch, 209428 bytes, 8 tensors)

bias f4 [256]
0	0xbd2d779c	-0.042350397
1	0xbd2f26d1	-0.042761628
2	0xbd0ca3d6	-0.034335934
3	0xbd497efc	-0.049193367
4	0xbd65eeed	-0.05613606
5	0xbe150dad	-0.14555998
6	0xbd96c7dd	-0.0736234
7	0xbcd9145c	-0.026498966
8	0xbdb8f691	-0.09031404
9	0xbd59fe26	-0.05322089
10	0xbd6037a2	-0.054740556
11	0xbe2b9450	-0.16755795
12	0xbd9c8213	-0.07641997
13	0xbcd17ab6	-0.025571208
14	0xbd40f853	-0.04711182
15	0x3c6b5187	0.014362699
16	0xbdb332cf	-0.08749925
17	0xbd83ee4c	-0.06441936
18	0xbd940e3b	-0.07229277
19	0x3e6ca581	0.2311001
20	0xbd8a31a1	-0.06747747
21	0xbd612dba	-0.05497525
22	0xbd616361	-0.055026416
23	0xbda7e9bb	-0.081988774
24	0xbdff32f1	-0.12460888
25	0xbd86c00e	-0.065796
26	0xbdc3f3b7	-0.09567969
27	0xbd9f8c41	-0.07790423
28	0xbd8efb90	-0.069815755
29	0xbda4602d	-0.080261566
30	0xbd663a33	-0.056207847
31	0x3c971536	0.018442731
32	0xbd16835e	-0.036746375
33	0xbdb0cf94	-0.086333424
34	0xbd343850	-0.043999016
35	0xbda23e81	-0.07922078
36	0xbbac3f76	-0.0052565886
37	0xbcecd23c	-0.028908841
38	0xbda09822	-0.07841517
39	0xbbdc26cc	-0.006718492
40	0xbd34ecfa	-0.04417131
41	0xbdb25638	-0.08707851
42	0xbd7907ba	-0.060798384
43	0xbd71363b	-0.05888961
44	0xbc89704b	-0.016777178
45	0xbd40f29e	-0.047106378
46	0xbe08dffc	-0.13366693
47	0xbd1c08d8	-0.03809437
48	0xbdcdbd79	-0.10045905
49	0x3c914d95	0.01773719
50	0xbd96185d	-0.07328866
51	0xbd9c5a5a	-0.07634421
52	0x3e3f589c	0.18686146
53	0xbd4309ba	-0.047616698
54	0xbd879688	-0.066205084
55	0xbe28f322	-0.16498998
56	0xbd4933a8	-0.04912153
57	0xbd8c8a3e	-0.06862305
58	0xbd46e78d	-0.048560668
59	0xbe013ff1	-0.12622048
60	0xbd2d134c	-0.04225473
61	0x3d39e4ce	0.04538422
62	0xbda9ceb5	-0.08291379
63	0xbde36ad3	-0.111043595
64	0xbdc9a7bf	-0.09846448
65	0xbb454d66	-0.0030105948
66	0xbda29eef	-0.079404704
67	0xbca141c3	-0.019684678
68	0xbd79f20e	-0.061021857
69	0xbe28973e	-0.16463944
70	0xbd675268	-0.056475073
71	0xbd8f2271	-0.06988991
72	0xbd872cca	-0.0660034
73	0xbe085009	-0.13311781
74	0xbd823b16	-0.06358926
75	0xbcc6d4e7	-0.024271442
76	0xbd8d35b8	-0.06895012
77	0xbe060878	-0.13089168
78	0xbd87015f	-0.065920584
79	0xbd39c636	-0.045355044
80	0xbd852f4b	-0.06503161
81	0xbd7060fa	-0.058686234
82	0x3cbc9152	0.023018513
83	0xbdd3ab34	-0.10335389
84	0xbd599493	-0.053120207
85	0xbd19b9ff	-0.037530895
86	0xbd3c678d	-0.04599719
87	0xbd7a7296	-0.061144434
88	0xbd294a6c	-0.04133074
89	0xbd98b4b8	-0.07456344
90	0xbe61a87f	-0.22036932
91	0xbd5aed8e	-0.053449206
92	0xbd840590	-0.064463735
93	0xbd32910c	-0.04359536
94	0xbd8dfa48	-0.06932503
95	0xbe270cca	-0.16313472
96	0xbd8e8342	-0.06958629
97	0xbd903507	-0.07041364
98	0x3ee48704	0.4463426
99	0xbea5ca16	-0.32380742
100	0xbb3d9ff3	-0.0028934448
101	0xbe8e2667	-0.27763674
102	0xbd0859bd	-0.033288706
103	0xbde4118e	-0.11136161
104	0xbd208d0b	-0.03919701
105	0xbdaab15d	-0.083346106
106	0xbd680d77	-0.056653466
107	0xbd9be59e	-0.076121554
108	0xbd7bf869	-0.0615162
109	0xbeafcc8b	-0.3433574
110	0xbd9a45eb	-0.07532867
111	0x3d2fb2f4	0.042895272
112	0xbd7133d6	-0.058887325
113	0x3e87dd37	0.2653596
114	0xbd7fb75d	-0.06243073
115	0xbdab1d54	-0.08355203
116	0xbd9dde42	-0.07708408
117	0xbd94f70d	-0.07273684
118	0xbdc74848	-0.097305834
119	0xbe8dbce9	-0.2768319
120	0xbdff4263	-0.12463834
121	0xbd9767ab	-0.0739282
122	0x3e91c815	0.28472963
123	0x3dbcd120	0.09219575
124	0xbd9b2b50	-0.075766206
125	0xbd099abd	-0.033594836
126	0xbd87dca9	-0.066338845
127	0xbe1d3d8d	-0.15355511
128	0xbd548781	-0.05188704
129	0xbd99fc3f	-0.07518815
130	0xbd2f2159	-0.042756412
131	0x3c17bd7d	0.009261486
132	0xbd31a551	-0.04337055
133	0xbd6a3c58	-0.057186455
134	0xbd2a60a2	-0.041596062
135	0xbd2db163	-0.042405497
136	0xbcaecec5	-0.02133883
137	0xbddc8767	-0.107680134
138	0xbd11395b	-0.03545509
139	0x3e706144	0.23474604
140	0xbd3e9618	-0.04652986
141	0xbd960894	-0.07325855
142	0xbc860d7a	-0.016363848
143	0xbda3c417	-0.079963855
144	0xbda0eff5	-0.07858268
145	0xbdbd65ec	-0.09247956
146	0x3e9c9f6d	0.30590382
147	0x3ee72ec0	0.45152855
148	0xbd8f03cb	-0.06983145
149	0xbd8a3bed	-0.06749711
150	0x3d4eb352	0.050463982
151	0xbd82ed01	-0.06392861
152	0xbd7aefb9	-0.061263774
153	0xbd235617	-0.039877024
154	0xbcac4717	-0.021029992
155	0xbd943869	-0.07237322
156	0xbd8e956e	-0.06962095
157	0xbdab194a	-0.08354433
158	0xbe33167d	-0.17489047
159	0xbe8f7296	-0.2801711
160	0xbd29929b	-0.04139958
161	0xbd436365	-0.047702212
162	0xbd3a22bf	-0.045443293
163	0xbd286cc2	-0.041119345
164	0xbd08198a	-0.03322748
165	0xbdad87ec	-0.08473191
166	0xbd2a30d9	-0.04155049
167	0xbd986fe4	-0.074432164
168	0xbe8102ec	-0.25197542
169	0xbd47611b	-0.04867659
170	0xbd2cc43b	-0.042179327
171	0x3e43c351	0.19117476
172	0x3e8f4ecf	0.27989814
173	0xbc19d4f8	-0.009389155
174	0xbd9204e4	-0.07129839
175	0xbd8d01f9	-0.06885142
176	0x3d0ae881	0.03391314
177	0xbda0d082	-0.0785227
178	0xbd9c2a11	-0.07625211
179	0xbd39e703	-0.045386326
180	0xbd7821d9	-0.060579155
181	0xbd484cd6	-0.0489014
182	0xbda3bd1c	-0.07995054
183	0xbdb77ec4	-0.089597255
184	0x3e906845	0.2820455
185	0xbe2d90fb	-0.16949837
186	0xbd960656	-0.07325427
187	0x3ebf70ba	0.3739069
188	0xbe4cc8ee	-0.19998524
189	0xbd9435a7	-0.07236796
190	0xbd4a3b47	-0.049372938
191	0xbd47e483	-0.04880191
192	0xbd8f85cc	-0.070079416
193	0xbd920741	-0.0713029
194	0xbda10b0b	-0.078634344
195	0xbdc31106	-0.09524731
196	0xbd7a6ed9	-0.06114087
197	0xbdc8287d	-0.097733475
198	0x3c05bc1f	0.008162527
199	0xbe379dfb	-0.17931359
200	0xbd8d461d	-0.06898139
201	0xbd9cdb61	-0.07659031
202	0xbd97af38	-0.07406467
203	0x3dfe40b6	0.124146864
204	0xbd3cd797	-0.04610404
205	0xbd1c1722	-0.038108
206	0xbcfbe65a	-0.030749489
207	0xbd903fea	-0.07043441
208	0xbdabdc95	-0.08391682
209	0xbd414be7	-0.047191527
210	0xbdd2dda9	-0.102961846
211	0xbe1af683	-0.151331
212	0xbe2da048	-0.16955674
213	0xbd25180e	-0.040306143
214	0xbdb3c45a	-0.087776855
215	0xbda44a5c	-0.080219954
216	0x3e92532f	0.2857909
217	0xbd579074	-0.052627996
218	0x3dcc0aeb	0.0996302
219	0xbe2ad504	-0.16682822
220	0xbbe7651b	-0.0070616133
221	0xbd901bae	-0.070365295
222	0xbdac2701	-0.08405877
223	0xbe03d9fc	-0.12876123
224	0x3d3af721	0.045645837
225	0xbe310508	-0.17287076
226	0xbc24253d	-0.010018644
227	0xbe408792	-0.18801716
228	0xbd968767	-0.07350045
229	0xbdb79cdc	-0.089654654
230	0xbd942d0d	-0.07235155
231	0x3c0451d9	0.008076155
232	0xbd88a6af	-0.06672417
233	0xbd986006	-0.0744019
234	0xbe6ae610	-0.22939324
235	0x3eb0bc52	0.34518677
236	0x3c27b60a	0.010236273
237	0x3bd98a28	0.006638784
238	0xbda39818	-0.07987994
239	0xbd52b4db	-0.05144201
240	0xbd6ff4d9	-0.058583114
241	0xbda0bf8a	-0.07849033
242	0xbca36c54	-0.019949116
243	0xbed18044	-0.4091817
244	0xbd7ec9a1	-0.062204007
245	0xbdde1540	-0.10843897
246	0xbd92841c	-0.07154104
247	0xbd59ff85	-0.053222198
248	0xbd59ce61	-0.053175334
249	0xbd9855e6	-0.07438259
250	0xbe54bb07	-0.2077447
251	0xbe386717	-0.18008076
252	0xbdab89d9	-0.08375902
253	0xbd987289	-0.07443721
254	0xbdca6f56	-0.09884517
255	0xbd5a5e1f	-0.053312417

weight f4 [256, 22]
0	0xbd35ff18	-0.04443273
1	0x3d0a2fe2	0.03373707
2	0xbdf7fc20	-0.12108636
3	0x3d9b1e0f	0.075740926
4	0xbe6a66f8	-0.22890842
5	0x3d2f10ec	0.042740747
6	0x3d321b14	0.043482855
7	0x3d4e160d	0.050313998
8	0xbcb424cc	-0.021990202
9	0x3e1c187b	0.15243714
10	0x3c251da5	0.010077869
11	0x3e58bbb0	0.21165347
12	0xbe086e86	-0.13323411
13	0xbd9e781f	-0.07737755
14	0xbe202213	-0.15637998
15	0x3ca5628b	0.02018859
16	0xbdea0954	-0.114275604
17	0x3e4eb3a3	0.20185713
18	0x3a36db16	0.00069753954
19	0x3db55814	0.0885469
20	0xbdafcb6d	-0.08583722
21	0xbd7f857e	-0.062383167
22	0xbd0826cd	-0.03324013
23	0x3dba82cf	0.09106981
24	0xbc1020d3	-0.008796888
25	0xbe092b1b	-0.1339535
26	0x3d7066fe	0.05869197
27	0xbca87d24	-0.020567484
28	0xbdece3a0	-0.115668535
29	0xbe19611a	-0.14978448
30	0x3e125f92	0.1429427
31	0x3d088863	0.033333194
32	0x3db9e630	0.09077108
33	0x3d109bb2	0.035304733
34	0x3ccc8968	0.024967864
35	0x3d8e3206	0.06943135
36	0x3d6a8ab7	0.057261195
37	0xbd3e8e34	-0.046522334
38	0xbe079018	-0.13238561
39	0xbdda348b	-0.10654553
40	0x3d95c0d5	0.073121704
41	0x3d32e890	0.04367882
42	0x3dfa095c	0.122088164
43	0xbdcba700	-0.09943962
44	0xbd5cfe22	-0.053953297
45	0x3dd31595	0.10306851
46	0xbe5f2c30	-0.217942
47	0x3dde19ae	0.10844742
48	0xbda90a44	-0.08253911
49	0xbe40f16a	-0.18842092
50	0x3d8430ec	0.064546436
51	0xbda1e564	-0.07905081
52	0xbd237b92	-0.039912768
53	0x3e232da3	0.15935378
54	0xbc878467	-0.016542627
55	0x3d414f2b	0.04719464
56	0x3ceda139	0.029007541
57	0x3dc0f996	0.09422605
58	0xbc81cca2	-0.015844647
59	0xbdc63400	-0.09677887
60	0xbe4f707b	-0.20257752
61	0xbcc5a461	-0.024126234
62	0xbe0f82df	-0.14014767
63	0x3dba8d95	0.09109036
64	0xbd005ba3	-0.03133739
65	0xbc820659	-0.015872167
66	0x3d835951	0.0641352
67	0x3e023e5c	0.127191
68	0xbe090cea	-0.13383833
69	0xbbd33bb9	-0.0064463285
70	0xbe283ea2	-0.16430143
71	0xbcaf76d7	-0.021418972
72	0xbd14323e	-0.036180727
73	0x3b808345	0.0039218985
74	0x3ce15440	0.027505994
75	0x3c4eb538	0.012616448
76	0x3d2b538e	0.04182773
77	0x3dffac3f	0.12484025
78	0xbba99259	-0.0051749167
79	0xbd4edd3d	-0.050503958
80	0xbe104e1c	-0.14092296
81	0x3d0b8823	0.034065377
82	0x3c199734	0.009374429
83	0x3c2a43be	0.010392128
84	0x3d1ba9f6	0.038003884
85	0xbbae3153	-0.0053159385
86	0xbd9d6dfc	-0.076869935
87	0xbe02f5e2	-0.1278911
88	0xbe1be356	-0.1522344
89	0xbcc9af98	-0.024619862
90	0x3eaecd74	0.34141123
91	0xbec37402	-0.38174444
92	0xbdd99812	-0.10624708
93	0x3e2a70d3	0.16644602
94	0xbdd86177	-0.10565465
95	0x3d2d04ca	0.042240895
96	0x3d9fbd19	0.077997394
97	0x3df8b24c	0.121433824
98	0xbbefac31	-0.007314228
99	0x3f3b9e9e	0.73288906
100	0x3d7c8b3b	0.061656218
101	0xbe3ba9b8	-0.18326461
102	0xbd0cdeff	-0.034392353
103	0xbc025a48	-0.007956095
104	0xbe492827	-0.19644223
105	0xbe8ab739	-0.27092913
106	0x3e2b1fe3	0.16711383
107	0x3ece67be	0.40313524
108	0xbd3db84d	-0.04631834
109	0xbe63ae82	-0.22234538
110	0xbe685b7c	-0.22691149
111	0xbe02e24b	-0.12781636
112	0xbea41a53	-0.32051334
113	0xbbcbbf7e	-0.006217896
114	0xbd27c8b2	-0.040962882
115	0xbea4c1f8	-0.32179236
116	0xbc9ce9d8	-0.019154474
117	0xbe191c31	-0.1495216
118	0xbdea27fc	-0.11433408
119	0xbe3b3085	-0.18280227
120	0xbddbf658	-0.10740346
121	0x3d8cbf81	0.06872464
122	0x3bbd8425	0.005783575
123	0x3e2f03e9	0.17091335
124	0x3d98b82c	0.07457003
125	0x3e827049	0.25476292
126	0xbe90df82	-0.28295523
127	0x3eb4c1e4	0.35304177
128	0xbdd8ab64	-0.10579565
129	0x3e5fe6cd	0.21865387
130	0xbe191194	-0.14948112
131	0x3e0c4a9f	0.1370034
132	0x3c1ea5af	0.009683057
133	0xbd40b693	-0.047049116
134	0xbdaa1e7e	-0.08306597
135	0xbde08df5	-0.10964576
136	0x3cfd14da	0.030893732
137	0xbe5d8bbe	-0.21635339
138	0xbd8c3bfc	-0.068473786
139	0x3c381084	0.011234406
140	0x3e211ec7	0.15734397
141	0x3e090666	0.13381347
142	0xbdfb36ca	-0.122663096
143	0x3e0f1143	0.13971429
144	0xbe1f11b8	-0.15534103
145	0x3df47710	0.11936772
146	0xbe136cf6	-0.14397034
147	0xbd35f0da	-0.044419147
148	0xbb3d0792	-0.0028843624
149	0x3dd5183d	0.10405014
150	0xbd37c9b1	-0.044870082
151	0xbcf7e50f	-0.03026059
152	0x3c83d929	0.016094761
153	0xbdd6859c	-0.10474703
154	0xbd82115f	-0.063509695
155	0xbf8011a8	-1.0005388
156	0x3eb5453c	0.35404384
157	0x3eb5becb	0.35497126
158	0x3e64c937	0.22342382
159	0xbc8c6338	-0.017137155
160	0xbe3087e1	-0.17239334
161	0x3eabe945	0.33576408
162	0xbd7522a1	-0.059847478
163	0xbd84f916	-0.06492822
164	0xbeb46640	-0.3523426
165	0xbb2808f7	-0.002564011
166	0x3ed3da66	0.41377562
167	0x3b3b500e	0.0028581652
168	0xbec17de3	-0.37791356
169	0xbe877f5d	-0.26464358
170	0x3e095272	0.13410357
171	0x3e430a8e	0.19046995
172	0x3e68f436	0.22749409
173	0xbe3d226d	-0.18470164
174	0xbdea13c1	-0.11429549
175	0xbf0d9b69	-0.5531526
176	0x3ce5818e	0.028015878
177	0x3e8e0220	0.27735996
178	0x3d39989c	0.045311555
179	0xbe121fa2	-0.1426988
180	0x3d33d746	0.043906473
181	0xbe056471	-0.13026597
182	0xbdcf52ce	-0.101232156
183	0xbdcd015d	-0.10010026
184	0x3cd2e8c5	0.025745759
185	0x3e3ab390	0.1823256
186	0x3ea1bc1c	0.3158883
187	0xbb16febe	-0.0023040022
188	0x3d9f6a2c	0.077839226
189	0xbe2f171a	-0.17098656
190	0xbeeb10b8	-0.45911193
191	0xbe208d99	-0.15679015
192	0x3be20cd9	0.006898504
193	0xbdfef73a	-0.124494985
194	0xbd758e83	-0.059950363
195	0x3dc08fbb	0.094024144
196	0x3ad12290	0.0015955735
197	0xbe653e9a	-0.22387162
198	0xbd01b8c9	-0.031670365
199	0x3d98afb2	0.07455386
200	0xbe3957a2	-0.18099836
201	0xbe15b985	-0.14621551
202	0xbcb3e887	-0.021961464
203	0xbb9e47c1	-0.004830331
204	0xbe2ded31	-0.16985013
205	0xbe2d2969	-0.16910328
206	0x3c8714dc	0.016489439
207	0x3d5bdafd	0.05367564
208	0x3b013306	0.001971425
209	0xbd8082e4	-0.062749654
210	0xbdb66cfc	-0.08907506
211	0x3db18a58	0.08668965
212	0xbd8e2728	-0.06941062
213	0xbc97615f	-0.018479047
214	0xbd1a09bd	-0.037606943
215	0x3d965062	0.073395506
216	0x3bf5ddfd	0.0075032697
217	0xbc3ed101	-0.01164651
218	0xbc17d4e5	-0.009267067
219	0xbe45e905	-0.19327171
220	0x3d571ff2	0.0525207
221	0x3d8c4e2f	0.0685085
222	0xbc4640b6	-0.012100389
223	0xbde0f082	-0.10983373
224	0xbe323b58	-0.1740545
225	0xbe177efc	-0.14794534
226	0xbd4050fd	-0.046952236
227	0x3ca1c0b7	0.019745214
228	0x3e39d6ac	0.18148297
229	0xbceb82a4	-0.028748818
230	0xbc5cf3e6	-0.013485884
231	0x3da938a1	0.08262754
232	0xbc019f13	-0.007911461
233	0xbd582b48	-0.05277565
234	0x3dda02f5	0.10645095
235	0xbc878d77	-0.016546948
236	0xbd8a078c	-0.06739721
237	0x3e1ab28c	0.15107173
238	0xbe01bb71	-0.1266916
239	0xbd403e2c	-0.04693429
240	0xbd0c0fdc	-0.034194812
241	0x3d290faa	0.041274704
242	0xbe67dea2	-0.22643521
243	0x3c168b0e	0.009188427
244	0xbe53e01c	-0.2069096
245	0xbe9e3b57	-0.30904648
246	0xbdbd06d7	-0.0922982
247	0xbdd5d17b	-0.10440346
248	0xbe1105fc	-0.14162439
249	0x3e9bee73	0.3045536
250	0x3d159526	0.036519192
251	0x3e549a52	0.20761994
252	0x3d3fb98b	0.046807807
253	0x3e795b50	0.24351239
254	0x3c0f9b58	0.008765064
255	0x3cfce10a	0.030869026

bias f4 [128]
0	0x3de64ba7	0.11244898
1	0xbd337828	-0.04381576
2	0xbd8379b2	-0.06419696
3	0xbd75fc35	-0.060054976
4	0xbd75fc37	-0.060054984
5	0xbd6de2e4	-0.058077708
6	0xbd75fbff	-0.060054775
7	0xbd5b0d34	-0.05347939
8	0xbcd804c5	-0.026369462
9	0xbd75fc40	-0.060055017
10	0xbdc46771	-0.095900424
11	0xbc8d6608	-0.017260566
12	0xbd2e76ff	-0.042593952
13	0xbd7cad2a	-0.06168858
14	0x3c05a410	0.008156791
15	0xbd867258	-0.06564778
16	0xbdaa5e42	-0.083187595
17	0xbd33be5e	-0.04388272
18	0xbe475ccc	-0.19468993
19	0xbd75a2ea	-0.05996982
20	0xbbc1c3f0	-0.00591325
21	0xbd39cb3f	-0.045359846
22	0xbd627542	-0.055287607
23	0xbd42055f	-0.047368404
24	0xbe435c9c	-0.19078296
25	0xbca8928b	-0.02057769
26	0xbd9d6390	-0.07685006
27	0xbd3275f0	-0.043569505
28	0xbd95d2fa	-0.07315631
29	0xbd75f9f5	-0.06005283
30	0xbd17f787	-0.037101295
31	0xbd360d9d	-0.044446576
32	0xbd356e2d	-0.044294525
33	0xbd69953b	-0.057027083
34	0xbd75fc31	-0.06005496
35	0xbd88bccc	-0.06676635
36	0xbd87d7e4	-0.06632975
37	0xbd324a30	-0.043527782
38	0x3daee505	0.08539776
39	0xbd75a422	-0.059970982
40	0xbd8f0eeb	-0.06985267
41	0xbd7e16ab	-0.062033337
42	0xbe20390e	-0.15646765
43	0xbd7d7ac7	-0.061884668
44	0xbd75fc37	-0.060054984
45	0xbd75ecda	-0.060040332
46	0xbd304685	-0.043036003
47	0xbd38d763	-0.045127284
48	0xbd75fc3e	-0.06005501
49	0xbdad0a7e	-0.08449267
50	0xbd6aca62	-0.057321914
51	0x3dd10d6d	0.10207639
52	0xbdacf5cb	-0.08445319
53	0xbdadba84	-0.08482841
54	0xbd988a5b	-0.07448264
55	0x3e30385b	0.17208998
56	0xbda6abeb	-0.081382595
57	0xbd241aed	-0.04006474
58	0xbd75fc41	-0.06005502
59	0xbd77a1e1	-0.060457114
60	0xbd8f6b9a	-0.07002945
61	0xbd316bc7	-0.043315675
62	0xbd34888e	-0.04407554
63	0xbd18b991	-0.037286345
64	0xbd3af015	-0.045639116
65	0xbd75f7dd	-0.060050834
66	0xbe3c5161	-0.18390419
67	0xbd770bc3	-0.06031395
68	0xbd97bb5b	-0.07408782
69	0xbd75fc34	-0.060054973
70	0xbd875660	-0.066082716
71	0xbd437cf1	-0.047726575
72	0xbd3a4a0f	-0.045480784
73	0xbd7ace83	-0.0612321
74	0xbd3ef96c	-0.046624586
75	0xbd2837da	-0.04106889
76	0xbd8e0b3c	-0.069357365
77	0xbd9ee128	-0.07757789
78	0xbd90b702	-0.07066156
79	0xbd5fdfa0	-0.054656625
80	0xbd759b90	-0.05996281
81	0xbd1a0a98	-0.03760776
82	0xbd0c7476	-0.034290753
83	0xbd327674	-0.043569997
84	0xbd94b383	-0.07260802
85	0xbc8f43ec	-0.017488442
86	0xbd8f7d78	-0.07006353
87	0xbd7e25ec	-0.062047884
88	0xbd90d816	-0.07072465
89	0xbd75fc3e	-0.06005501
90	0xbd26bd92	-0.040708132
91	0xbd580872	-0.05274243
92	0xbd7f40dc	-0.062317714
93	0xbd3bed22	-0.045880444
94	0xbd3a45c1	-0.04547668
95	0xbd75fa87	-0.060053375
96	0xbd901aa7	-0.070363335
97	0xbd75fc18	-0.06005487
98	0xbd0253ee	-0.031818323
99	0xbd96ce9a	-0.07363625
100	0xbd75fc34	-0.060054973
101	0xbd3a4dc3	-0.045484316
102	0xbd806a0f	-0.06270229
103	0xbd523cae	-0.0513274
104	0xbd92d035	-0.071686186
105	0xbd518952	-0.05115635
106	0xbd75fbb6	-0.060054503
107	0xbd359c45	-0.044338483
108	0xbd929959	-0.07158155
109	0xbd3a8d4f	-0.04554492
110	0xbd8fecd1	-0.07027591
111	0xbd5af06f	-0.05345195
112	0xbd3a99ff	-0.04555702
113	0xbd24664b	-0.040136617
114	0xbd3a5705	-0.045493145
115	0xbe04ffda	-0.12988225
116	0xbd78a4eb	-0.060704153
117	0xbd63b067	-0.055588152
118	0xbd75f32b	-0.060046356
119	0xbd9acd80	-0.07558727
120	0xbd75c0c2	-0.05999828
121	0x3e7e42d5	0.24830182
122	0xbd8a8a3d	-0.06764648
123	0xbd688376	-0.056765996
124	0xbda37114	-0.07980552
125	0x3cea1863	0.028576082
126	0xbd2c8797	-0.042121496
127	0xbd3e11e4	-0.04640378

weight f4 [128, 256]
0	0xbced47ae	-0.028964844
1	0x3e26bbd0	0.16282582
2	0x3dc6a2a0	0.09698987
3	0x3cf8306e	0.03029653
4	0xbd2f1ac4	-0.042750135
5	0x3dc7c909	0.09755141
6	0x3dba0106	0.090822265
7	0xbe3ff4ae	-0.18745682
8	0xbdb8d532	-0.09025039
9	0xbdb7f569	-0.08982355
10	0xbb87216a	-0.0041238563
11	0xbe09ca7a	-0.13456145
12	0x3d602473	0.05472226
13	0xbd8f9e10	-0.0701257
14	0x3dfa913b	0.12234732
15	0xbcadb31d	-0.021203572
16	0x3cef89a1	0.029240431
17	0x3e51afee	0.20477268
18	0x3dbcbdbe	0.09215878
19	0xbdc427ca	-0.09577902
20	0x3dd8bf28	0.10583335
21	0x3e45820b	0.19287889
22	0x3df8d5e9	0.12150175
23	0x3dfa8910	0.12233174
24	0xbd32f9f7	-0.043695416
25	0x3e1a8f8d	0.15093823
26	0xbd5bd13d	-0.053666342
27	0x3cbab997	0.022793574
28	0x3e13736b	0.14399497
29	0xbd81df52	-0.06341423
30	0x3c96229a	0.018327046
31	0x3df8d70d	0.12150393
32	0x3ad3ab72	0.0016149117
33	0x3d5e0901	0.054207806
34	0x3de824eb	0.113351665
35	0x3bd701d6	0.006561498
36	0xbd81bfd8	-0.063354194
37	0xbda8e5c1	-0.08246947
38	0x3d00e2e2	0.031466372
39	0x3e009f35	0.12560733
40	0x3e1701a0	0.14746714
41	0xbc2f5f83	-0.010703924
42	0x3e00782d	0.12545843
43	0x3dc2715a	0.09494276
44	0xbe187980	-0.14890099
45	0x3d23b710	0.039969504
46	0x3e12cb2c	0.14335316
47	0x3d900391	0.0703193
48	0x3ddb64e5	0.107126035
49	0x3e3bc7e0	0.18337965
50	0x3dddd0d8	0.108308494
51	0x3dae723b	0.085178815
52	0xbe8deb37	-0.27718517
53	0xbe006a27	-0.12540494
54	0x3e25ead2	0.16202858
55	0xbcea4850	-0.028598934
56	0xbbace635	-0.0052764663
57	0xbd1374e6	-0.036000155
58	0xbc1b2478	-0.009469144
59	0xbeec0749	-0.46099308
60	0xbd08fa88	-0.03344205
61	0xbe8a063e	-0.26957887
62	0xbdc3b74a	-0.09556444
63	0xbca85dc4	-0.020552523
64	0xbda7b55f	-0.08188891
65	0x3d1579c5	0.03649308
66	0xbd9ca4cc	-0.0764862
67	0x3b1bc41c	0.0023768013
68	0x3db2ad6f	0.08724486
69	0xbd88dbe3	-0.06682565
70	0x3ded3fc7	0.1158443
71	0x3c73d064	0.014881227
72	0xbd9175ea	-0.071025684
73	0x3db0a37c	0.08624932
74	0x3e0893b6	0.13337597
75	0x3e1f428f	0.15552734
76	0x3d3e71e0	0.04649532
77	0x3e33eecb	0.17571561
78	0x3dee3d4a	0.11632784
79	0xbd385e98	-0.045012087
80	0xbd58bf50	-0.052916825
81	0x3bd14fc1	0.0063876812
82	0x3ca4605d	0.02006548
83	0x3dfb03ac	0.1225656
84	0x3d38904d	0.04505949
85	0x3de4060a	0.11133964
86	0xbc5a6afe	-0.013331173
87	0x3c624cd2	0.013812261
88	0x3cd8721c	0.0264216
89	0x3c0f9b5f	0.008765071
90	0xbdab00ca	-0.0834976
91	0xbdf17c09	-0.11791236
92	0xbcbf804a	-0.023376603
93	0x3d0d6d53	0.034528088
94	0x3e2acdf6	0.1668013
95	0x3e128b98	0.14311063
96	0x3c8eb360	0.017419517
97	0xbd9b40c5	-0.07580713
98	0xbec7c1c7	-0.39015028
99	0x3d99a818	0.075027645
100	0xbe335758	-0.17513788
101	0x3e2ba67f	0.16762732
102	0xbe72ecbe	-0.23723122
103	0x3d0916a0	0.033468843
104	0xbd06dc0f	-0.032924708
105	0xbcc0406d	-0.02346822
106	0xbce14d7d	-0.02750277
107	0xbc374d6d	-0.011187893
108	0x3de3950e	0.11112414
109	0xbd11386e	-0.035454206
110	0xbdeec61c	-0.1165888
111	0x3dbb47fb	0.091445886
112	0xbe1188e8	-0.14212382
113	0xbcbf6ccd	-0.02336731
114	0xbe12f137	-0.14349829
115	0x3af26c4a	0.0018495407
116	0x3daca204	0.084293395
117	0x3e082641	0.13295843
118	0x3dc6945e	0.096962675
119	0xbe545018	-0.20733678
120	0x3de49fde	0.11163305
121	0x3d35b8a5	0.044365544
122	0xbdb147e0	-0.08656287
123	0x3d1b4546	0.03790786
124	0x3d14a407	0.03628924
125	0x3d0fac14	0.035076216
126	0x3da72011	0.08160413
127	0x3bbef370	0.00582736
128	0xbe4fc651	-0.20290495
129	0x3d905f0e	0.0704938
130	0x3e1811a3	0.14850478
131	0xbd05c61a	-0.032659627
132	0x3c682350	0.014168575
133	0x3e116370	0.14198089
134	0xbdc30f6a	-0.095244244
135	0x3d6f0186	0.058351062
136	0x3d04ed0d	0.03245263
137	0xbd73475f	-0.059394237
138	0xbd85ecc1	-0.06539298
139	0xbe6f96cc	-0.23397368
140	0x3d874328	0.06604606
141	0xbd9bb5dd	-0.07603047
142	0x3e055f62	0.13024667
143	0x3d92cdd9	0.071681686
144	0x3e197d92	0.14989308
145	0x3c557236	0.013027718
146	0xbc3cdb2f	-0.011526867
147	0x3eb15c41	0.34640697
148	0x3ddc312f	0.107515685
149	0xbdf6a40f	-0.120430104
150	0xbcc73b35	-0.024320224
151	0x3e155b4e	0.14585611
152	0x3df56d20	0.119837046
153	0x3dcf1484	0.10111335
154	0x3ccb9a67	0.024853898
155	0xbdaec2a9	-0.08533222
156	0xba96011b	-0.0011444421
157	0xbc2ad110	-0.010425821
158	0x3d7f1b46	0.06228187
159	0x3ce66045	0.028122077
160	0x3d7be023	0.06149305
161	0x3e0f2c6f	0.13981794
162	0xbd589c69	-0.05288354
163	0x3d174bb8	0.036937445
164	0xbd69632e	-0.05697935
165	0x3d90de69	0.07073671
166	0xbe33ee45	-0.17571361
167	0xbd2f6ae6	-0.042826556
168	0xbe063690	-0.13106751
169	0x3d5fb2b1	0.054613773
170	0x3e05b029	0.13055481
171	0xbe424b8a	-0.18974128
172	0xbe1a63f6	-0.15077195
173	0x3d547383	0.051867973
174	0x3e120053	0.14257936
175	0xbc3fee5f	-0.011714547
176	0xbedd8f35	-0.4327332
177	0x3db01e3e	0.08599518
178	0xbcacfb39	-0.021115886
179	0xbcc1cc6b	-0.023657044
180	0xbd2f88b8	-0.042854995
181	0x3e6b8d42	0.23003104
182	0xbd39c70f	-0.045355853
183	0xbc598603	-0.01327658
184	0xbe02f087	-0.12787066
185	0x3db63340	0.08896494
186	0x3d1efca9	0.038815174
187	0xbe74552c	-0.23860615
188	0xbdd89851	-0.10575927
189	0x3e3b3f8c	0.1828596
190	0xbd84115a	-0.06448622
191	0xbd6f84ef	-0.058476385
192	0x3d665427	0.056232598
193	0xbd939140	-0.072054386
194	0x3db9f769	0.09080393
195	0x3db7d803	0.08976748
196	0x3cf32d34	0.02968464
197	0xbc0f8af0	-0.008761153
198	0x3e3473a1	0.17622234
199	0xbdf75862	-0.120774046
200	0xbd2410c0	-0.040055037
201	0xbc6210f7	-0.01379799
202	0x3deba6aa	0.11506398
203	0xbe5a19ff	-0.21298979
204	0x3c8fafdb	0.01753991
205	0x3d835119	0.064119525
206	0xbdd1c37b	-0.10242363
207	0x3c6f4b51	0.014605359
208	0xbdbf6cb1	-0.09346903
209	0x3a900a80	0.0010989457
210	0x3e0b7f8b	0.13622873
211	0xbdf82a24	-0.12117413
212	0xbdffc1f5	-0.12488166
213	0xbd9ea867	-0.07746964
214	0xbc129ae9	-0.008948066
215	0x3db05dfb	0.08611675
216	0xbc793cc6	-0.015212243
217	0x3da05c80	0.07830143
218	0xbe8babeb	-0.272796
219	0xbeee2a9f	-0.46516892
220	0xbc834dea	-0.016028363
221	0x3d98218c	0.074282736
222	0x3d81a970	0.06331146
223	0xbd585fd0	-0.05282575
224	0xbe2065ae	-0.15663788
225	0xbf64cacd	-0.8937195
226	0x3e1a9767	0.15096818
227	0x3d576174	0.052583173
228	0xbdbc8860	-0.09205699
229	0x3ce4a41b	0.027910283
230	0x3d973472	0.0738305
231	0xbdabeefe	-0.083951935
232	0x3d856d6f	0.065150134
233	0x3cf07034	0.029350378
234	0x3d4566e5	0.04819383
235	0xbdb8a6a5	-0.0901616
236	0x3db3475c	0.08753845
237	0x3e39d622	0.18148091
238	0xbd940115	-0.07226769
239	0xbcf52fc9	-0.029930012
240	0x3d331b13	0.04372699
241	0x3d50f47f	0.05101442
242	0x3d46f150	0.048569977
243	0x3e4666e5	0.19375189
244	0xbdd2d205	-0.10293964
245	0xbc42db9b	-0.011893178
246	0xbd0d8664	-0.034551993
247	0x3d706dac	0.05869834
248	0x3dbad96a	0.091235
249	0xbcb0ffae	-0.021606293
250	0x3e586506	0.21132287
251	0x3ce5cb3a	0.028051008
252	0xbd3392f8	-0.043841332
253	0x3e1e4b01	0.15458299
254	0xbd3e1fc2	-0.046417005
255	0x3e193326	0.14960918

bias f4 [64]
0	0xbd2ed6e8	-0.04268542
1	0xbd3155d4	-0.043294743
2	0x3e01f2db	0.12690298
3	0xbda10b8a	-0.07863529
4	0xbd3941d8	-0.04522881
5	0xbd5e2bf0	-0.05424112
6	0xbd75fbfd	-0.060054768
7	0xbd7680ba	-0.060181357
8	0xbd20f613	-0.039297175
9	0xbd75fc3e	-0.06005501
10	0xbe55bc0c	-0.20872515
11	0xbd323e4f	-0.043516453
12	0x3eceb322	0.40371042
13	0xbd8f9e5e	-0.07012628
14	0xbd8ce330	-0.0687927
15	0xbd3c3643	-0.045950186
16	0xbd75f529	-0.060048256
17	0xbd75fc43	-0.06005503
18	0xbd3f9e81	-0.04678202
19	0xbd75fc3c	-0.060055003
20	0x3efed07f	0.49768445
21	0xbd368488	-0.044559985
22	0xbda36bcc	-0.07979545
23	0x3c09d004	0.008411411
24	0xbe066f77	-0.13128458
25	0xbd2ebe73	-0.042662095
26	0xbd0dc13a	-0.034608103
27	0xbd77f6d0	-0.060538113
28	0xbd2bff0b	-0.041991275
29	0xbc0a0c98	-0.008425854
30	0xbd393637	-0.04521772
31	0xbd80f06e	-0.06295858
32	0xbd7e33f1	-0.062061254
33	0xbe05b993	-0.13059072
34	0xbe68764b	-0.22701375
35	0xbd75fc42	-0.060055025
36	0xbe70867c	-0.23488802
37	0xbd75fc41	-0.06005502
38	0xbe5b03ea	-0.21388212
39	0xbd76b80d	-0.06023412
40	0xbd853c85	-0.06505684
41	0xbd75ff2b	-0.0600578
42	0xbd9aedb6	-0.07564871
43	0xbe38d773	-0.18050937
44	0xbd881f83	-0.066466354
45	0xbd37d57e	-0.044881336
46	0xbd905e77	-0.07049268
47	0xbd39bda0	-0.045346856
48	0xbd75da24	-0.06002249
49	0x3e941740	0.28923988
50	0xbd31d6c2	-0.0434177
51	0xbd3897af	-0.04506653
52	0xbd825be5	-0.06365184
53	0xbd9b9c0a	-0.075981215
54	0xbe82c032	-0.25537258
55	0xbd352f1a	-0.044234373
56	0xbe14e98d	-0.14542218
57	0xbebd112a	-0.36927158
58	0xbd9db39b	-0.07700273
59	0xbd41b3d0	-0.047290623
60	0xbd7c3fe2	-0.06158436
61	0xbe2bf3ee	-0.1679227
62	0xbd75f8d8	-0.06005177
63	0xbd2fcef1	-0.042921964

weight f4 [64, 128]
0	0xbe5c6d89	-0.2152616
1	0x3da43e51	0.080196984
2	0x3e4661fb	0.19373314
3	0x3d827145	0.06369261
4	0x3c7c2686	0.015390044
5	0xbcbc877e	-0.023013826
6	0xbbebe513	-0.0071989386
7	0xbe25d85d	-0.16195817
8	0xbe5262d2	-0.2054551
9	0xbcee3b21	-0.02908093
10	0xbdcb5ca3	-0.099297784
11	0x3cc2507a	0.023720015
12	0xbe5ebdde	-0.21752116
13	0xbd962580	-0.07331371
14	0x3d345ee4	0.044035807
15	0xbe41db8d	-0.18931408
16	0x3cb0c53d	0.021578426
17	0x3ba5e56a	0.0050627487
18	0xbdf0e0bb	-0.11761614
19	0x3e24344f	0.16035579
20	0xbca13b74	-0.01968167
21	0x3db5894f	0.0886408
22	0x3e0e8bba	0.13920489
23	0xbcae3795	-0.021266738
24	0xbe15cc1b	-0.14628641
25	0x3de1851e	0.11011718
26	0xbe25c332	-0.16187742
27	0xbe15716e	-0.14594051
28	0xbdf89a30	-0.12138784
29	0xbd6b44ae	-0.057438545
30	0x3d114ceb	0.035473745
31	0xbe34ba08	-0.1764909
32	0xbd455f97	-0.048186865
33	0x3e59c771	0.21267487
34	0x3e04300c	0.12908953
35	0x3e4401d6	0.19141325
36	0x3df02031	0.1172489
37	0xbd42b924	-0.047539845
38	0xbe060d9e	-0.13091132
39	0xbdc412d1	-0.095739014
40	0xbd709e04	-0.058744445
41	0x3e618644	0.22023875
42	0x3df4dc3d	0.119560696
43	0x3d211db4	0.039334968
44	0x3e2a8309	0.16651548
45	0x3e2d22ef	0.16907857
46	0xbd796805	-0.060890216
47	0xbe51b554	-0.20479327
48	0xbaf65f0c	-0.0018796637
49	0xbcee913e	-0.029121991
50	0x3e159882	0.14608958
51	0x3ded38d9	0.115831085
52	0x3d839f2b	0.06426843
53	0xbd9bec75	-0.0761346
54	0xbdfd85a7	-0.12379008
55	0xbdc428c5	-0.09578089
56	0xbe52c900	-0.20584488
57	0x3d99e81c	0.075149745
58	0xbd833b75	-0.06407825
59	0x3d043261	0.032274608
60	0xbcf532d7	-0.029931469
61	0x3df25820	0.11833215
62	0xbe5fe20d	-0.21863575
63	0x3cdeffbc	0.027221553
64	0xbe452a5f	-0.19254445
65	0x3d887fde	0.06665014
66	0xbe4b9f67	-0.19885026
67	0xbd9ec75f	-0.07752871
68	0x3dcdbded	0.10045991
69	0xbc669c0c	-0.01407529
70	0xbe48aab6	-0.19596371
71	0xbdd84299	-0.105595775
72	0xbd8608bd	-0.065446354
73	0x3c19bdd7	0.00938364
74	0xbcf5d9e5	-0.030011127
75	0xbe1c752d	-0.15279074
76	0xbe0a871a	-0.135281
77	0x3e3dfefc	0.185543
78	0xbe3ee743	-0.18642907
79	0xbe28a9a8	-0.16470969
80	0xbc4c1a1b	-0.012457396
81	0xbd6d6ec5	-0.057966966
82	0xbdabc870	-0.0838784
83	0xbdb398e1	-0.08769394
84	0xbd04c00a	-0.032409705
85	0x3d2b82a1	0.041872624
86	0xbe50b0fb	-0.20380013
87	0x3c9fdb62	0.01951379
88	0x3da6edaa	0.081507996
89	0x3e6ee74d	0.23330422
90	0xbe2213ac	-0.15827817
91	0x3dfb5fe5	0.1227415
92	0x3db907a6	0.09034662
93	0x3dd14eea	0.1022013
94	0x3db57efc	0.08862111
95	0xbc4a5182	-0.012348535
96	0xbb0ff2a0	-0.0021964684
97	0xbdd032f2	-0.10165967
98	0x3c927561	0.017878236
99	0x3d591a81	0.05300379
100	0xbd54d870	-0.051964223
101	0x3dba7ec2	0.091062084
102	0x3dcbed6a	0.099573925
103	0xbe25b8d7	-0.16183792
104	0xbccfbe31	-0.025359245
105	0xbce7d0dd	-0.028297836
106	0xbd21061d	-0.03931247
107	0x3dd129bb	0.102130376
108	0xbd2264a5	-0.039646763
109	0x3d9dd6fa	0.07707019
110	0xba112eb6	-0.00055382715
111	0xbd1c2898	-0.03812465
112	0xbe45ef8b	-0.1932966
113	0xbddf3696	-0.10899083
114	0xbe39dacd	-0.18149872
115	0xbe2fc9ed	-0.17166872
116	0x3e19c293	0.1501563
117	0xbd2fefed	-0.04295342
118	0xbdd7d869	-0.10539324
119	0x3e157ffe	0.14599606
120	0xbe47e006	-0.19519052
121	0xbe2ec2ea	-0.17066541
122	0x3dfedd6a	0.12444575
123	0xbd3c0e44	-0.045912042
124	0x3e0a89c3	0.13529114
125	0xbd31ba70	-0.04339069
126	0xbcb12b66	-0.02162714
127	0xbda41bde	-0.08013128
128	0x3d2857bc	0.041099295
129	0x3dfa3085	0.122162856
130	0xbd72b803	-0.05925752
131	0xbc1c47fd	-0.009538648
132	0x3b3d3efa	0.0028876648
133	0xbd64ae69	-0.055830393
134	0x3cc6f984	0.0242889
135	0xbdd2b472	-0.102883235
136	0xbd0b43cf	-0.034000214
137	0xbde5c91e	-0.11220001
138	0xbd4b4daa	-0.049634613
139	0xbb5a97eb	-0.003335471
140	0x3db72743	0.089430355
141	0xbd13f97c	-0.0361266
142	0x3c915be6	0.017744016
143	0x3d2c6c78	0.04209563
144	0xbcd475d3	-0.02593509
145	0xbdaee815	-0.0854036
146	0x3d8501e3	0.064945005
147	0x3d7a4b88	0.06110719
148	0x3cf82aa3	0.030293768
149	0xbe1fdd3d	-0.1561174
150	0x3d255128	0.0403606
151	0x3dc63098	0.09677237
152	0x3d06ff18	0.03295812
153	0x3db5a371	0.088690646
154	0x3e22a7e8	0.15884364
155	0xbe195c77	-0.14976679
156	0xbdc41fa2	-0.09576346
157	0x3e190434	0.1494301
158	0xbdb0beb8	-0.08630127
159	0x3c275bc5	0.010214751
160	0xbbaf50f2	-0.0053502256
161	0x3c4fbf0e	0.012679828
162	0x3e3b201e	0.1827397
163	0xbd518a9f	-0.05115759
164	0xbd9d9888	-0.07695109
165	0xbe326df4	-0.17424756
166	0x3da0862f	0.078380935
167	0xbc0e1912	-0.008672969
168	0x3e6d15e7	0.23152886
169	0xbdce67a3	-0.10078361
170	0x3c5af3e3	0.013363811
171	0xbcfa348d	-0.030542636
172	0x3db87363	0.09006383
173	0xbdb9e3e0	-0.09076667
174	0xbd8f40fd	-0.069948174
175	0x3c3d96c6	0.011571592
176	0x3dc419d5	0.095752396
177	0x3cfb1b7d	0.030652756
178	0xbdb85b74	-0.09001818
179	0xbe1caf46	-0.15301237
180	0x3d1fb99e	0.038995378
181	0xbc78e2a0	-0.01519075
182	0xbde26d06	-0.11055951
183	0x3e0639dd	0.1310801
184	0xbde18fbe	-0.11013745
185	0x3d94c8d8	0.072648704
186	0x3db0babf	0.08629369
187	0x3deb1b67	0.11479836
188	0x3d2e6e5d	0.04258572
189	0xbd76d674	-0.060263112
190	0xbc04b354	-0.008099396
191	0xbe018f2c	-0.12652272
192	0xbe247a93	-0.16062383
193	0x3da7db89	0.0819617
194	0xbdfecb7a	-0.12441154
195	0xbdec7034	-0.115448385
196	0xbdc37275	-0.09543315
197	0x3cfbd0e5	0.030739257
198	0xbd87fb92	-0.0663978
199	0x3ce02f85	0.02736641
200	0xbdc2748d	-0.094948865
201	0x3e28227f	0.16419409
202	0xbe1ca009	-0.15295424
203	0xbdbfe0cc	-0.093690485
204	0x3d46d25e	0.048540466
205	0x3d9aff5c	0.07568237
206	0xbdbc68a5	-0.09199647
207	0xbd3ece5a	-0.04658351
208	0xbd8c27b3	-0.068435095
209	0x3d46379c	0.048392877
210	0xbe666711	-0.22500254
211	0x3db24957	0.08705395
212	0x3bb4c333	0.0055164336
213	0xbe18ef9b	-0.14935152
214	0x3db4d2f7	0.08829301
215	0x3dfdb433	0.12387886
216	0x3d2da37d	0.042392243
217	0x3c635309	0.013874778
218	0xbb1f7901	-0.0024333599
219	0x3e494d16	0.19658312
220	0x3d04e863	0.032448184
221	0x3bfac071	0.0076523353
222	0x3df69746	0.12040572
223	0x3d749d9b	0.059720617
224	0xbdce91f9	-0.10086436
225	0xbddb4434	-0.10706368
226	0x3d9d5e32	0.07683982
227	0xbdb6a219	-0.089176364
228	0xbdd49d48	-0.103815615
229	0x3d2dc2ed	0.042422224
230	0x3e3ae05c	0.18249649
231	0xbb936523	-0.0044981404
232	0xbdd3310f	-0.103120916
233	0xbdcdff29	-0.100584336
234	0xbddfb88a	-0.1092387
235	0xbce7e8ca	-0.028309245
236	0x3dcb1440	0.09915972
237	0xbdad5bcc	-0.084647745
238	0xbcee7df0	-0.029112786
239	0x3b311568	0.0027020816
240	0xbd665d05	-0.056241054
241	0x3da804a6	0.082040116
242	0xbdf722e5	-0.120672025
243	0xbe4f366e	-0.20235607
244	0x3d55b566	0.05217495
245	0xbe64b52b	-0.22334735
246	0x3def46c2	0.11683418
247	0x3e6ca64c	0.23110312
248	0x3dd2ca83	0.10292532
249	0xbc53980a	-0.012914667
250	0xbb2c9872	-0.0026335982
251	0xbdf4d854	-0.11955324
252	0xbcf287d7	-0.02960579
253	0xbe30e229	-0.17273773
254	0x3e02cd7c	0.12773699
255	0xbdbd910c	-0.09256181

bias f4 [16]
0	0xbd06df42	-0.03292776
1	0x3c749af4	0.014929522
2	0xbe2984e9	-0.16554607
3	0xbe33f09e	-0.17572257
4	0xbd4cd895	-0.050011236
5	0x3eda22bf	0.42604634
6	0xbedd8b84	-0.43270504
7	0xbd585a50	-0.052820504
8	0x3d942b95	0.07234875
9	0xbdf441f9	-0.11926646
10	0x3f1dad05	0.6159213
11	0xbe41f9ed	-0.18942995
12	0xbd802bd5	-0.0625836
13	0x3cb23c1e	0.021757182
14	0x3d9a1c25	0.075248994
15	0xbe199d4f	-0.15001415

weight f4 [16, 64]
0	0x3e510e2e	0.20415565
1	0x3dc69e22	0.0969813
2	0xbd738e8d	-0.05946212
3	0x3e2b9793	0.1675704
4	0x3d018ae8	0.031626612
5	0x3d619757	0.05507597
6	0x3e41a59d	0.18910833
7	0xbd5be5ce	-0.053685956
8	0x3e0ccd41	0.13750173
9	0x3cc0877d	0.023502106
10	0x3eee22ce	0.4651093
11	0xbe14f3cc	-0.14546126
12	0xbead0ca8	-0.33798718
13	0x3b601b36	0.0034195906
14	0xbc7832e0	-0.015148848
15	0x3ea42384	0.32058346
16	0x3e193df5	0.14965041
17	0xbd162f88	-0.036666423
18	0xbbe74995	-0.007058332
19	0xbe320d42	-0.1738787
20	0x3e4d3ef6	0.20043549
21	0x3c98efaa	0.018668968
22	0x3d214ab1	0.039377872
23	0xbe1b2f24	-0.15154701
24	0xbe792808	-0.24331677
25	0x3dfb6521	0.12275148
26	0xbe95c374	-0.2925068
27	0x3e2c3107	0.16815577
28	0xbe39d473	-0.18147449
29	0xbd64571e	-0.055747144
30	0xbce5bb3d	-0.028043384
31	0x3d992b34	0.074789435
32	0xbe8fba3b	-0.2807177
33	0xbe354fa5	-0.17706163
34	0x3f1d6bcf	0.6149263
35	0xbea452f9	-0.32094553
36	0xbe7d8d55	-0.24760945
37	0xbe76931b	-0.24079554
38	0x3e7f64ab	0.24940746
39	0x3e424c23	0.18974356
40	0xbdaafc3b	-0.083488904
41	0xbe9c11f2	-0.3048244
42	0xbd752ad6	-0.059855305
43	0xbe083aa6	-0.13303623
44	0x3d4055c2	0.046956785
45	0x3e1931fb	0.14960472
46	0x3dfae13c	0.12249991
47	0x3e12d9bb	0.1434087
48	0xbe8fda9c	-0.28096473
49	0x3da9da5b	0.08293601
50	0xbe4eb8bb	-0.20187657
51	0xbaf9743e	-0.0019031835
52	0xbe8fc679	-0.2808111
53	0x3da1a65a	0.07893057
54	0x3e62595d	0.22104402
55	0x3e3e7767	0.18600236
56	0xbe8375f8	-0.2567594
57	0xbe9fde94	-0.312245
58	0xbd88e9b2	-0.06685199
59	0x3da3039c	0.07959673
60	0x3e2b3faa	0.16723505
61	0xbedc6486	-0.43045443
62	0xbe492508	-0.19643033
63	0xbd47b4c9	-0.048756395
64	0xbe3770bc	-0.17914099
65	0x3e01ba1f	0.12668656
66	0x3d2bcc52	0.041942902
67	0xbdfb65a3	-0.12275245
68	0x3e3824db	0.17982809
69	0xbd288d4b	-0.041150372
70	0x3e1f045b	0.15529005
71	0xbdae2426	-0.085029885
72	0xbd5d646e	-0.054050855
73	0xbd98ad95	-0.07454983
74	0x3e967039	0.29382494
75	0x3d8dfe98	0.069333255
76	0x3eae71b1	0.34071115
77	0x3d4a0763	0.04932345
78	0xbdcfca66	-0.10146026
79	0x3e0016b4	0.1250866
80	0x3e5aacc9	0.21354975
81	0xbc27833b	-0.010224159
82	0xbdf92e7b	-0.121670686
83	0x3e84128f	0.2579541
84	0xbf1dd73c	-0.61656547
85	0xbe2baccf	-0.1676514
86	0xbe9945cb	-0.2993606
87	0xbb205962	-0.0024467339
88	0x3e106def	0.14104436
89	0xbd7aa525	-0.06119265
90	0xbeaed939	-0.34150103
91	0x3e8bd459	0.27310446
92	0xbe4b3147	-0.19843017
93	0x3e7ad0bd	0.2449369
94	0xbe05304b	-0.13006704
95	0x3e2008fc	0.15628427
96	0x3de6bb44	0.11266187
97	0x3e9a0379	0.30080774
98	0x3dcb8825	0.09938077
99	0xbe5213df	-0.20515393
100	0xbe826e2b	-0.25474676
101	0xbdba483c	-0.09095809
102	0x3d367b82	0.04455138
103	0x3e8a035b	0.26955685
104	0x3d971418	0.073768795
105	0x3dd30f3d	0.10305641
106	0x3e93d058	0.2886989
107	0xbe026abd	-0.1273603
108	0xbe8bba71	-0.2729068
109	0x3dc854b5	0.097817816
110	0xbe988483	-0.29788598
111	0x3e277bfb	0.16355889
112	0x3cf9aeed	0.030478919
113	0x3e6a42af	0.22877
114	0x3e11d2ca	0.14240566
115	0xbd9d3e9f	-0.0767796
116	0xbc2105b2	-0.009828018
117	0xbc58f302	-0.013241531
118	0x3e2c58b6	0.16830716
119	0x3e3e9372	0.18610933
120	0xbe975685	-0.29558197
121	0x3ee45f8a	0.4460414
122	0x3e1c6a2a	0.15274873
123	0xbe0dedff	-0.1386032
124	0x3e5e8867	0.21731721
125	0xbaf7a1f6	-0.0018892873
126	0x3d61f3eb	0.05516426
127	0x3e4162c8	0.18885338
128	0xbe31803d	-0.17334075
129	0x3dbb47bc	0.091445416
130	0xbd90b86e	-0.07066427
131	0x3e9a271d	0.30107966
132	0x3e879609	0.26481655
133	0xbe42cabf	-0.19022654
134	0x3bd522b9	0.0065043834
135	0xbe5e825d	-0.21729417
136	0xbbfc39a0	-0.007697299
137	0xbdc51a9f	-0.09624218
138	0xbd0cd844	-0.034385934
139	0xbe301087	-0.17193805
140	0x3f098f9e	0.5373477
141	0xbcb391fd	-0.021920199
142	0x3d54b161	0.051926974
143	0x3e045d1f	0.12926148
144	0x3d5b133f	0.05348515
145	0x3e188d56	0.14897665
146	0x3ea79933	0.3273407
147	0x3d72fbc2	0.059322126
148	0x3d8859a0	0.066577196
149	0x3cd66de5	0.026175449
150	0xbd8fd76e	-0.07023512
151	0x3d1cc966	0.038278006
152	0xbdcbc75d	-0.09950135
153	0xbe3e338c	-0.18574351
154	0xbb9aa7bc	-0.0047197025
155	0xbccaac89	-0.024740474
156	0xbe1f4082	-0.15551952
157	0xbe385264	-0.1800018
158	0xbdf1e8d7	-0.11811989
159	0x3d132bb2	0.035930343
160	0xbd858bfe	-0.06520842
161	0xbe2ec150	-0.1706593
162	0x3d9ef004	0.07760623
163	0x3e19f6dc	0.15035576
164	0xbca6fe7c	-0.02038502
165	0xbe417b51	-0.18894698
166	0x3ebf0550	0.3730874
167	0xbe1461eb	-0.14490478
168	0x3dd9cd20	0.106348276
169	0x3db237cb	0.08702048
170	0xbe317154	-0.17328387
171	0x3d755677	0.059896912
172	0x3db8954e	0.090128526
173	0x3d831942	0.06401302
174	0x3dbd40e8	0.092408955
175	0xbe5ad3f0	-0.2136991
176	0xbe613cf9	-0.21995915
177	0xbe99fc67	-0.3007538
178	0x3e72c190	0.2370665
179	0x3de98290	0.11401856
180	0x3d30675e	0.04306733
181	0x3d2f4435	0.042789657
182	0x3e82e2d9	0.25563696
183	0xbe1d94f8	-0.15388858
184	0x3b558e45	0.003258602
185	0xbe88c978	-0.26716208
186	0xbd8b8c91	-0.0681392
187	0xbe079bdd	-0.13243051
188	0xbe896aa0	-0.2683916
189	0xbd8b9347	-0.068152
190	0x3e2b6e81	0.16741373
191	0xbe39ddd3	-0.18151025
192	0x3e55d743	0.20882897
193	0x3e8c59c5	0.2741224
194	0x3ecdf0d1	0.4022279
195	0xbe4ccfff	-0.20001219
196	0xbdbae9b2	-0.09126605
197	0x3e33b7b5	0.17550547
198	0x3d6b05b7	0.057378497
199	0xbe2f259e	-0.17104194
200	0x3d4a1bc5	0.04934289
201	0x3b9361c5	0.004497739
202	0xbddb7a90	-0.10716736
203	0x3e3b7844	0.18307596
204	0x3f1b947c	0.60773444
205	0x3d2eeef6	0.04270836
206	0x3e0408f7	0.12894045
207	0xbe91d1b3	-0.284803
208	0xbe248600	-0.16066742
209	0xbe3a5596	-0.18196711
210	0x3d839a03	0.0642586
211	0xbe0fd645	-0.14046581
212	0x3eea0928	0.4571011
213	0x3e9d568c	0.30730093
214	0x3c9c6f12	0.019095931
215	0x3e2485e2	0.16066697
216	0xbe086852	-0.13321045
217	0xbc8ca84e	-0.017170098
218	0x3dcc8f7d	0.09988306
219	0x3e312461	0.17299034
220	0xbc2424a3	-0.0100185005
221	0xbdd7e688	-0.10542017
222	0x3e88cba2	0.2671786
223	0x3dee1513	0.11625113
224	0xbdb0c775	-0.086317934
225	0xbdc65e4b	-0.09685954
226	0xbe30bd26	-0.17259654
227	0xbe534f3b	-0.20635693
228	0x3e695538	0.22786415
229	0xbe4854a9	-0.19563545
230	0x3d43d722	0.04781259
231	0x3e05c4f2	0.1306341
232	0x3e2f0bd5	0.17094357
233	0xbe528bdf	-0.20561169
234	0xbe025626	-0.12728176
235	0x3e8d330f	0.27578017
236	0x3df1a6a9	0.11799366
237	0xbe12708c	-0.14300746
238	0x3e817d08	0.25290704
239	0xbe3aa874	-0.18228322
240	0xbe154f58	-0.14581048
241	0xbf1ac01e	-0.604494
242	0x3e105e8f	0.14098571
243	0xbda1b631	-0.078960784
244	0xbdf75c51	-0.12078155
245	0xbe188905	-0.14896019
246	0x3e15b79a	0.1462082
247	0xbe22222b	-0.15833347
248	0xbd880fc0	-0.06643629
249	0xbdae3cd3	-0.08507695
250	0xbe4f2f8c	-0.20232981
251	0x3e806226	0.2507488
252	0xbe25488b	-0.16140954
253	0xbd795d75	-0.060880143
254	0xbdfcb64b	-0.12339457
255	0x3e182453	0.14857607
