Model_deployment/models/model_all_netlist.pth (torch, 21152 bytes, 4 tensors)

bias f4 [64]
0	0x3e4a6995	0.19766839
1	0xbe670967	-0.2256218
2	0x3d820098	0.063477695
3	0xbdb23aa2	-0.087025896
4	0xbd1edd48	-0.03878525
5	0xbddbafa8	-0.10726863
6	0xbd77940a	-0.060443915
7	0x3e7e2144	0.24817377
8	0x3edfed34	0.4373566
9	0xbc2c00cc	-0.010498237
10	0x3dfb1567	0.122599415
11	0xbe236b5a	-0.1595892
12	0xbe073d58	-0.13206995
13	0xbda870f9	-0.08224673
14	0xbe671f7e	-0.22570607
15	0xbe224e9d	-0.15850301
16	0xbe424847	-0.18972884
17	0xbe32f828	-0.17477477
18	0xbe231cfb	-0.15929024
19	0xbe9eae77	-0.3099248
20	0xbe456b31	-0.19279172
21	0x3b9b5189	0.0047399444
22	0xbe36f42b	-0.1786658
23	0xbd2ee3d1	-0.04269773
24	0x3e9c4985	0.3052484
25	0x3e9a06b7	0.30083248
26	0xbdcb681e	-0.09931968
27	0xbe0d7792	-0.13815144
28	0xbd19301e	-0.037399404
29	0xbd3fd018	-0.046829313
30	0xbc9302bc	-0.01794564
31	0xbdd1e0dc	-0.10247967
32	0xbc2a6402	-0.01039982
33	0xbe15208d	-0.14563198
34	0xbe5bce1f	-0.21465348
35	0xbe0211a4	-0.12702042
36	0xbe11956a	-0.14217153
37	0xbda7100e	-0.08157359
38	0xbd238e7e	-0.039930813
39	0x3e40468d	0.18776913
40	0xbd075c37	-0.033046927
41	0x3d743c62	0.059627898
42	0x3bf6d662	0.0075328806
43	0xbdd00ee7	-0.101590924
44	0xbce7d03c	-0.028297536
45	0xbe63ed92	-0.22258595
46	0xbd5f95df	-0.054586288
47	0xbe0a90b6	-0.13531765
48	0xbe3ba324	-0.18323952
49	0xbd65f77c	-0.056144223
50	0xbe0e9fae	-0.139281
51	0xbd1e8d17	-0.038708773
52	0x3e881c6f	0.26584193
53	0x3e3c3b40	0.18381977
54	0xbcea087e	-0.028568503
55	0xbddcff78	-0.10790914
56	0xbd848fab	-0.06472715
57	0xbdd1bd68	-0.102412045
58	0x3df2e1c5	0.11859468
59	0xbe10e92c	-0.14151448
60	0x3da84049	0.082153864
61	0xbdd5a06d	-0.104309894
62	0x3d34e809	0.0441666
63	0xbe3417ac	-0.17587155

weight f4 [64, 22]
0	0xbec1776e	-0.3778643
1	0xbf74d909	-0.9564367
2	0x3e981c09	0.2970889
3	0x3e4f8a7b	0.2026767
4	0xbf03aa18	-0.5143142
5	0x3e845fad	0.25854245
6	0x3ea6fea2	0.32616144
7	0xbdce5bfd	-0.10076139
8	0xbe83d169	-0.25745705
9	0xbee14879	-0.44000605
10	0x3e31b340	0.17353535
11	0xbeb51064	-0.35364068
12	0x3e0171b0	0.12641025
13	0x3e2a8938	0.16653907
14	0x3eeb17e0	0.45916653
15	0xbf1b8b56	-0.60759485
16	0x3e9b4057	0.30322525
17	0xbc305ae3	-0.010763857
18	0xbf09c251	-0.5381213
19	0xbbedb800	-0.0072546005
20	0xbe8aa847	-0.2708151
21	0x3ec53698	0.38518214
22	0x3e2b1774	0.16708165
23	0x3f46a29c	0.7759187
24	0x3d47f696	0.048819147
25	0x3c39f204	0.011349205
26	0x3e01997f	0.1265621
27	0xbd0398a9	-0.03212801
28	0x3e89fba6	0.26949805
29	0xbde3202d	-0.110901214
30	0x3ed7dab5	0.42159048
31	0xbe2861f8	-0.16443622
32	0xbe674e95	-0.2258857
33	0xbd202899	-0.039101217
34	0xbdfd37d7	-0.12364166
35	0x3f0cc981	0.5499497
36	0x3e77d99c	0.24204105
37	0xbed55074	-0.41662943
38	0xbcc124ee	-0.02357718
39	0x3f253dd1	0.6454745
40	0xbe9df710	-0.30852556
41	0xbd638bdc	-0.055553302
42	0x3ec7ff88	0.39062142
43	0xbebc0c8f	-0.3672833
44	0x3dfa0e1d	0.12209723
45	0xbf9c6364	-1.2217832
46	0xbd8f01e9	-0.06982786
47	0xbea28966	-0.31745452
48	0x3dfb24bb	0.12262865
49	0x3cb9e6a5	0.022692988
50	0xbdd59d84	-0.10430434
51	0xbc97967d	-0.018504376
52	0xbc2e3ebe	-0.010635076
53	0x3e2013a4	0.15632492
54	0xbe2fab86	-0.17155275
55	0xbd03fc9f	-0.03222334
56	0x3d2e60b9	0.04257271
57	0x3d37a1ce	0.044832043
58	0xbe3237de	-0.17404124
59	0x3d98baf0	0.074575305
60	0x3d2ff04e	0.04295378
61	0x3c021efe	0.007941959
62	0xbe550efd	-0.20806499
63	0x3ddf96fd	0.109174706
64	0xbe1858f3	-0.14877681
65	0xbec2bf47	-0.38036558
66	0xbca55f08	-0.020186916
67	0xbe37e89c	-0.17959827
68	0xbdb14bb4	-0.08657017
69	0xbec3df15	-0.38256136
70	0x3dfd282d	0.123611785
71	0xbe285f34	-0.16442567
72	0xbf3fb799	-0.7488952
73	0xbd749fb9	-0.059722636
74	0xbe77521b	-0.24152415
75	0x3e874d9b	0.26426396
76	0x3e6809ad	0.22659941
77	0xbbe5b6e7	-0.007010329
78	0xbd2464b2	-0.040135093
79	0xbcdaed63	-0.026724523
80	0x3ed9ce5e	0.42540258
81	0x3e6cb5a8	0.23116171
82	0xbe962e29	-0.29332092
83	0xbd7e8ecf	-0.06214791
84	0xbe98249e	-0.29715437
85	0x3cae0f25	0.021247456
86	0xbd4ac065	-0.049499888
87	0xbf35a298	-0.70951223
88	0x3d560e2b	0.052259605
89	0x3d459910	0.048241675
90	0xbe97e370	-0.2966571
91	0xbecab2d9	-0.39589575
92	0xbef35f27	-0.47533533
93	0xbd1f7b77	-0.038936105
94	0xbeea6ed8	-0.45787692
95	0xbca96a3d	-0.020680541
96	0x3ead782d	0.3388075
97	0xbf88c968	-1.0686464
98	0xbf20e647	-0.62851375
99	0xbdb37a01	-0.08763505
100	0xbe969f35	-0.2941834
101	0x3f257740	0.64635086
102	0xbec615cf	-0.38688514
103	0x3ec905b6	0.3926217
104	0xbebcc998	-0.36872554
105	0xbd7b32fa	-0.061327912
106	0xbcf09a31	-0.0293704
107	0x3ca4e4c3	0.020128613
108	0x3f7c764c	0.98618007
109	0x3f1e1951	0.6175738
110	0xbe90cdf6	-0.28282136
111	0xbef6e88c	-0.48224294
112	0x3ed44915	0.41462007
113	0xbf8b76d7	-1.0895642
114	0xbe58d2e6	-0.21174201
115	0x3efd18a5	0.49432865
116	0xbdd31cfb	-0.10308262
117	0xbee92472	-0.45535618
118	0xbcd5bf2c	-0.026092134
119	0xbf02f579	-0.5115581
120	0xbedf6ca0	-0.43637562
121	0xbed924f1	-0.42410997
122	0x3db4cedc	0.08828518
123	0xbe29d1c4	-0.16583925
124	0x3d852a7d	0.065022446
125	0xbedbd0d7	-0.4293277
126	0xbedc83f0	-0.4306941
127	0x3cd968e3	0.026539272
128	0x3f8097f1	1.0046369
129	0xbe551c4f	-0.2081158
130	0xbe21464b	-0.15749471
131	0xbe539107	-0.20660792
132	0xbdb5069a	-0.0883915
133	0xbeed3b7d	-0.46334448
134	0x3e80db1f	0.25167176
135	0x3f479b12	0.77970994
136	0xbebeb6b1	-0.37248757
137	0x3e908252	0.28224427
138	0x3d44d3a8	0.048053414
139	0x3e4e9e50	0.20177579
140	0x3d3490b2	0.044083305
141	0xbdb5ce4f	-0.08877241
142	0x3dd3e92b	0.10347208
143	0x3df91aa9	0.12163288
144	0x3ebf67d2	0.37383896
145	0xbe96bf96	-0.29443043
146	0xbe5b5336	-0.21418461
147	0xbf086c55	-0.532903
148	0xbe5cac24	-0.21550041
149	0x3f0c310c	0.5476234
150	0x3e9b5502	0.30338293
151	0x3e60e506	0.21962366
152	0x3d6ad4a2	0.05733169
153	0xbcaad3c5	-0.020852933
154	0xbeea0c5c	-0.45712554
155	0x3e77f247	0.24213515
156	0x3d3c5326	0.045977734
157	0xbe63007d	-0.22168155
158	0x3ebba97b	0.3665274
159	0xbc725274	-0.014790166
160	0xbee918ba	-0.45526677
161	0x3f49544e	0.78644264
162	0xbf2f0b7e	-0.6837691
163	0x3f44d69a	0.76889956
164	0xbe60916a	-0.21930471
165	0xbe16cbc1	-0.14726163
166	0x3dec188f	0.11528122
167	0xbd86933b	-0.06571051
168	0xbeee741f	-0.46572968
169	0x3e0e1f13	0.13879041
170	0x3e35c746	0.17751798
171	0xbef26032	-0.47339016
172	0xbe3568da	-0.17715779
173	0xbe806659	-0.25078085
174	0x3d0b9304	0.034075752
175	0x3efe9c2c	0.49728525
176	0xbe28ec58	-0.16496408
177	0xbe04caea	-0.1296803
178	0xbe4e04cc	-0.20119017
179	0xbdeef270	-0.11667335
180	0xbe85bcad	-0.2612051
181	0x3d011f8a	0.03152422
182	0x3ea38711	0.31938985
183	0xbf02e92b	-0.51137036
184	0xbd5e9e39	-0.05435011
185	0x3de9c795	0.114150204
186	0x3e94421b	0.28956684
187	0x3eb4194f	0.3517556
188	0xbe825be2	-0.25460726
189	0x3edc530a	0.43032104
190	0x3e8c5828	0.27411008
191	0xbe9a5259	-0.3014095
192	0x3e43b4c0	0.1911192
193	0xbe8305dc	-0.25590408
194	0x3d35b287	0.04435971
195	0x3e09db06	0.13462457
196	0x3dba8829	0.09108002
197	0x3f0a7b57	0.5409445
198	0x3e20c795	0.15701135
199	0xbe0d0140	-0.13770008
200	0xbc434416	-0.011918088
201	0xbdaf4c90	-0.08559525
202	0xbda16ccd	-0.0788208
203	0xbe804a4b	-0.2505668
204	0x3d0e52c6	0.034746908
205	0x3eb6b52d	0.356851
206	0x3d5d5c48	0.054043084
207	0xbc9ec4fb	-0.019381037
208	0xbe82f2c0	-0.2557583
209	0x3e9eebb6	0.31039208
210	0x3e02265f	0.1270995
211	0x3e12695f	0.14298008
212	0x3daaa654	0.08332506
213	0x3e5b5076	0.21417412
214	0xbe362b20	-0.17789888
215	0x3e049434	0.1294716
216	0xbef0e691	-0.47050908
217	0xbe0fc563	-0.14040141
218	0x3c077f0a	0.008270035
219	0xbd3c4b54	-0.045970276
220	0xbea368dd	-0.31915942
221	0x3f233f02	0.6376802
222	0xbf06da4e	-0.52676857
223	0xbf168381	-0.5879441
224	0xbe9b3cfa	-0.3031996
225	0xbf2d9bc6	-0.67815816
226	0xbee13df4	-0.4399258
227	0xbeeb002a	-0.45898563
228	0x3e1e1e6e	0.15441296
229	0xbf26df4a	-0.6518446
230	0xbe7f8834	-0.24954301
231	0x3e5eafbc	0.21746725
232	0xbea8b543	-0.32950792
233	0x3e0fb8df	0.14035366
234	0x3e5d22ea	0.2159535
235	0x3e0c71ef	0.13715337
236	0xbedd4c78	-0.43222404
237	0xbd6c58f8	-0.057702035
238	0xbda25090	-0.07925522
239	0x3f0e8076	0.55664766
240	0x3f2de182	0.6792222
241	0xbe37ba9e	-0.17942283
242	0x3dc4aaca	0.09602888
243	0x3e8f7fe6	0.28027266
244	0xbef1fd6f	-0.47263667
245	0x3e84a572	0.25907475
246	0x3d81a328	0.06329948
247	0xbe8f6e3c	-0.2801379
248	0x3dcaed08	0.099084914
249	0xbe0be172	-0.1366022
250	0x3e70112e	0.23444054
251	0x3ecf96f8	0.40544868
252	0x3e692418	0.22767675
253	0xbdb7cdcb	-0.08974799
254	0x3cbb42e1	0.022859039
255	0xbe4608a1	-0.19339229

bias f4 [8]
0	0x3e562ae0	0.20914793
1	0x3b0fc142	0.002193526
2	0x3ce1cddc	0.027563982
3	0x3e37357d	0.17891498
4	0xbc8f56f5	-0.017497519
5	0x3e2d3831	0.16915967
6	0x3d4de5c2	0.050267942
7	0x3dde662f	0.10859334

weight f4 [8, 64]
0	0xbdee5e49	-0.11639077
1	0xbdfc1e48	-0.12310463
2	0xbdb11f33	-0.08648529
3	0x3e997756	0.2997386
4	0xbb3affe8	-0.002853388
5	0xbed37fc6	-0.4130842
6	0xbd76c7ca	-0.060249127
7	0xbef4da4e	-0.47822803
8	0x3eaa2e93	0.33238658
9	0x3cb4d8d4	0.022076048
10	0x3f2545c6	0.6455959
11	0x3d4f2130	0.05056876
12	0xbe18eebd	-0.14934821
13	0x3d66b64f	0.056326207
14	0xbe3f2a96	-0.18668589
15	0x3d86766b	0.06565555
16	0xbe40064e	-0.18752405
17	0xbcab415f	-0.020905195
18	0xbc07ea3f	-0.008295595
19	0x3eb61e78	0.3557012
20	0x3e8fafc8	0.28063798
21	0xbeb04968	-0.34431005
22	0x3e395b4d	0.18101235
23	0xbeb4b7b9	-0.3529642
24	0xbde9e4cb	-0.11420592
25	0xbf0d41c6	-0.5517849
26	0xbe874834	-0.26422274
27	0x3e3e5631	0.18587567
28	0xbe9fd884	-0.31219876
29	0xbd6c933f	-0.057757612
30	0x3e9757e6	0.2955925
31	0xbe9c680b	-0.30548128
32	0x3d10e5e5	0.035375495
33	0xbe18a5f3	-0.14907055
34	0xbe510c02	-0.20414737
35	0xbeee935f	-0.4659681
36	0x3e07b239	0.1325158
37	0x3f0c76d8	0.5486884
38	0x3e3d83d1	0.18507315
39	0x3eb353fd	0.35025015
40	0xbf113cca	-0.5673338
41	0xbdb66267	-0.089054875
42	0x3e394235	0.18091662
43	0x3e9d2cf0	0.30698347
44	0xbeb31d16	-0.34983128
45	0x3e60742c	0.21919316
46	0xbe22f5d1	-0.15914084
47	0x3e9263e8	0.28591847
48	0x3e7d957d	0.24764057
49	0x3d67ba43	0.056574117
50	0xbea7f6dd	-0.3280553
51	0xbd48f480	-0.0490613
52	0x3ee9bb06	0.456505
53	0x3e8305db	0.25590405
54	0x3c51d6c6	0.012807554
55	0xbc1e013e	-0.009643851
56	0xbebb173d	-0.36541167
57	0x3ee26382	0.44216543
58	0xbc98a756	-0.01863448
59	0xbb90fa3e	-0.0044243624
60	0x3e83c5bf	0.25736806
61	0xbd6340d6	-0.055481754
62	0xbed91dcf	-0.42405555
63	0xbd8f9244	-0.0701032
64	0x3e29384e	0.16525385
65	0x3e800d0f	0.25009963
66	0x3d3e1338	0.046405047
67	0xbd329b24	-0.043604985
68	0x3d62a45d	0.05533253
69	0xbe808e4e	-0.2510857
70	0x3dbb1296	0.09134404
71	0xbe4032e0	-0.18769407
72	0xbb000087	-0.0019531564
73	0xbe13624a	-0.14392963
74	0xbdc94ddb	-0.09829303
75	0xbe0fae0b	-0.14031236
76	0xbe332bfb	-0.17497246
77	0xbe3be2ff	-0.18348311
78	0xbdae287b	-0.08503815
79	0x3e1c2560	0.15248632
80	0xbad973b9	-0.0016590274
81	0x3e1f68e7	0.15567361
82	0xbdda2901	-0.10652352
83	0x3e16bd7d	0.14720722
84	0xbe7cd923	-0.24692206
85	0xbe4f779d	-0.20260473
86	0xbdbd8aca	-0.092549875
87	0x3e8a1228	0.26966977
88	0x3e41d835	0.18930133
89	0x3f0ea581	0.5572129
90	0x3e762bbe	0.24040124
91	0xb94a5c6d	-0.00019298652
92	0x3cc92dae	0.024557915
93	0x3d8c5917	0.0685293
94	0x3e932dea	0.28745967
95	0xbf25a7bb	-0.6470906
96	0x3eebe12c	0.4607023
97	0xbe74d5e2	-0.23909715
98	0x3db16483	0.08661749
99	0xbdb37a5a	-0.08763571
100	0x3d10cdff	0.035352703
101	0x3ecce1fa	0.40016156
102	0x3e91742b	0.28408942
103	0xbe241581	-0.16023828
104	0xbe4c1a96	-0.19932017
105	0x3dc2f2f7	0.09518998
106	0xbea46b0f	-0.3211293
107	0x3b7225ea	0.0036948868
108	0xbf0a50bc	-0.5402944
109	0x3e955754	0.2916819
110	0xbe38045b	-0.17970411
111	0xbe5114db	-0.20418112
112	0xbe3aef14	-0.18255264
113	0xbd1f2be0	-0.0388602
114	0x3e078568	0.13234484
115	0x3dd4d173	0.10391512
116	0xbed35d29	-0.41282013
117	0x3e06bfc1	0.13159086
118	0xbeaaf383	-0.3338891
119	0xbda6489d	-0.08119319
120	0xbf02c842	-0.5108682
121	0x3e1afdad	0.15135832
122	0xbec57724	-0.3856746
123	0x3d6803a6	0.056644104
124	0xbdf77f53	-0.12084832
125	0xbe066f42	-0.13128379
126	0xbeda4f9a	-0.42638856
127	0xbe663f87	-0.22485171
128	0x3e1b60b5	0.1517361
129	0xbe4da32e	-0.2008178
130	0x3dc8982c	0.097946495
131	0xbdd0420e	-0.10168849
132	0x3e6ce893	0.23135595
133	0xbe902d3a	-0.28159505
134	0xbe725bf7	-0.23667894
135	0xbf859d04	-1.0438542
136	0xbd7d760a	-0.06188015
137	0x3e312c5a	0.17302075
138	0xbf287fd3	-0.65820044
139	0x3e21cfd3	0.15801935
140	0xbe8e045c	-0.277377
141	0xbe62afcc	-0.22137374
142	0x3da31309	0.07962615
143	0xbd92e329	-0.071722336
144	0x3e98249c	0.2971543
145	0xbe71c2c7	-0.23609458
146	0xbddfd60c	-0.10929498
147	0xbe0ab440	-0.13545322
148	0xbe0c6198	-0.13709104
149	0xbf03a6e4	-0.5142653
150	0xbe2db196	-0.16962275
151	0xbe9063fc	-0.28201282
152	0x3ee681e6	0.4502098
153	0x3da7e644	0.081982166
154	0x3dea0b23	0.114279054
155	0x3d90e8a4	0.07075623
156	0xbd4d5ab3	-0.050135326
157	0x3d88b41a	0.06674977
158	0x3d157a1c	0.036493406
159	0x3e54c013	0.20776395
160	0xbece880a	-0.40338165
161	0xbe31c273	-0.17359333
162	0x3e7d3c47	0.24730025
163	0x3d841864	0.06449965
164	0xbe2e0de5	-0.16997488
165	0xbe6503a0	-0.22364664
166	0xbe505feb	-0.2034909
167	0x3eae1ce0	0.34006405
168	0xbe80c99e	-0.25153822
169	0x3d9ae6c5	0.07563547
170	0x3e2ef31c	0.17084926
171	0x3e75f1d6	0.24018034
172	0x3e26198e	0.16220686
173	0x3d3a9e42	0.045561083
174	0x3e61fbfc	0.2206878
175	0xbdad33a3	-0.084571145
176	0xbe60de87	-0.21959887
177	0xbb5b630a	-0.003347578
178	0x3e1730cc	0.14764708
179	0x3cf4e5c5	0.029894719
180	0x3e4d739d	0.20063634
181	0xbb99fcdc	-0.0046993326
182	0x3d7c688f	0.061623152
183	0x3e068a2b	0.13138644
184	0x3ec05f7b	0.37572846
185	0x3e83992c	0.25702798
186	0x3e9ccc3c	0.30624568
187	0x3e11128b	0.1416723
188	0xbeecfd8a	-0.46287185
189	0x3e0c6d12	0.13713482
190	0x3df9dca2	0.122002855
191	0x3d4d3fef	0.0501098
192	0xbd65939d	-0.056048978
193	0xbe901f0f	-0.28148696
194	0x3e7ee5b5	0.24892314
195	0x3dfa23db	0.1221387
196	0xbd0b572d	-0.034018684
197	0xbcc1d8d0	-0.023662955
198	0x3f01237d	0.50444776
199	0xbec63b24	-0.38716996
200	0x3ef0a5a0	0.47001362
201	0x3c49c2f6	0.012314549
202	0x3eb7e6da	0.35918313
203	0xbe98e821	-0.298646
204	0x3e05cd0d	0.13066502
205	0x3e81a8a4	0.25323975
206	0xbea0258c	-0.31278646
207	0xbe1e7809	-0.15475477
208	0xbe30c7fa	-0.17263785
209	0x3e4b6248	0.1986171
210	0xbe06154b	-0.1309406
211	0xbdfac1ec	-0.12244019
212	0xbe0c6364	-0.1370979
213	0x3da5795b	0.08079787
214	0x3db598ab	0.0886701
215	0x3e25b285	0.16181381
216	0x3e3220fb	0.17395394
217	0xbe5f6e7c	-0.2181949
218	0x3e8080f4	0.25098383
219	0xbdfbff71	-0.12304581
220	0x3e249455	0.16072209
221	0x3dd5ea9b	0.10445138
222	0xbdf7d6b4	-0.12101498
223	0x3dcf67db	0.10127231
224	0xbe2420de	-0.16028163
225	0xbdd32ad2	-0.10310902
226	0xbe957e61	-0.29197982
227	0x3e1b05da	0.15138951
228	0x3db7bd51	0.08971656
229	0xbc319cec	-0.010840636
230	0x3dd24e8f	0.1026889
231	0xbef71581	-0.48258594
232	0x3dbd4beb	0.09242996
233	0xbd918e1c	-0.07107183
234	0x3cf7f557	0.030268354
235	0x3e9b328c	0.30312002
236	0x3f597a9a	0.849527
237	0xbe469da7	-0.19396077
238	0xbd2ab2ef	-0.04167455
239	0x3e2268ea	0.15860334
240	0xbe727d0b	-0.23680513
241	0x3cef1319	0.029183911
242	0x3e097b8b	0.13426034
243	0x3e908b0c	0.28231084
244	0xbe91740e	-0.28408855
245	0x3e0eb246	0.13935193
246	0x3e249edf	0.1607623
247	0xbd9a31a2	-0.07528998
248	0xbf0b446d	-0.54401284
249	0x3d9fe5bc	0.0780749
250	0x3ed46bc4	0.4148847
251	0x3cb722ed	0.022355521
252	0x3ea1cf2f	0.3160338
253	0xbc9f456d	-0.019442284
254	0xbe55bfc9	-0.20873941
255	0xbe416b5e	-0.18888614
